{"format": "layers-model", "generatedBy": "keras v2.6.0", "convertedBy": "TensorFlow.js Converter v3.9.0", "modelTopology": {"keras_version": "2.6.0", "backend": "tensorflow", "model_config": {"class_name": "Functional", "config": {"name": "model_4", "layers": [{"class_name": "InputLayer", "config": {"batch_input_shape": [null, 224, 224, 3], "dtype": "float32", "sparse": false, "ragged": false, "name": "input_10"}, "name": "input_10", "inbound_nodes": []}, {"class_name": "TFOpLambda", "config": {"name": "tf.math.truediv_3", "trainable": true, "dtype": "float32", "function": "math.truediv"}, "name": "tf.math.truediv_3", "inbound_nodes": [["input_10", 0, 0, {"y": 127.5, "name": null}]]}, {"class_name": "TFOpLambda", "config": {"name": "tf.math.subtract_3", "trainable": true, "dtype": "float32", "function": "math.subtract"}, "name": "tf.math.subtract_3", "inbound_nodes": [["tf.math.truediv_3", 0, 0, {"y": 1.0, "name": null}]]}, {"class_name": "Functional", "config": {"name": "inception_v3", "layers": [{"class_name": "InputLayer", "config": {"batch_input_shape": [null, 224, 224, 3], "dtype": "float32", "sparse": false, "ragged": false, "name": "input_9"}, "name": "input_9", "inbound_nodes": []}, {"class_name": "Conv2D", "config": {"name": "conv2d_376", "trainable": false, "dtype": "float32", "filters": 32, "kernel_size": [3, 3], "strides": [2, 2], "padding": "valid", "data_format": "channels_last", "dilation_rate": [1, 1], "groups": 1, "activation": "linear", "use_bias": false, "kernel_initializer": {"class_name": "GlorotUniform", "config": {"seed": null}}, "bias_initializer": {"class_name": "Zeros", "config": {}}, "kernel_regularizer": null, "bias_regularizer": null, "activity_regularizer": null, "kernel_constraint": null, "bias_constraint": null}, "name": "conv2d_376", "inbound_nodes": [[["input_9", 0, 0, {}]]]}, {"class_name": "BatchNormalization", "config": {"name": "batch_normalization_376", "trainable": false, "dtype": "float32", "axis": [3], "momentum": 0.99, "epsilon": 0.001, "center": true, "scale": false, "beta_initializer": {"class_name": "Zeros", "config": {}}, "gamma_initializer": {"class_name": "Ones", "config": {}}, "moving_mean_initializer": {"class_name": "Zeros", "config": {}}, "moving_variance_initializer": {"class_name": "Ones", "config": {}}, "beta_regularizer": null, "gamma_regularizer": null, "beta_constraint": null, "gamma_constraint": null}, "name": "batch_normalization_376", "inbound_nodes": [[["conv2d_376", 0, 0, {}]]]}, {"class_name": "Activation", "config": {"name": "activation_376", "trainable": false, "dtype": "float32", "activation": "relu"}, "name": "activation_376", "inbound_nodes": [[["batch_normalization_376", 0, 0, {}]]]}, {"class_name": "Conv2D", "config": {"name": "conv2d_377", "trainable": false, "dtype": "float32", "filters": 32, "kernel_size": [3, 3], "strides": [1, 1], "padding": "valid", "data_format": "channels_last", "dilation_rate": [1, 1], "groups": 1, "activation": "linear", "use_bias": false, "kernel_initializer": {"class_name": "GlorotUniform", "config": {"seed": null}}, "bias_initializer": {"class_name": "Zeros", "config": {}}, "kernel_regularizer": null, "bias_regularizer": null, "activity_regularizer": null, "kernel_constraint": null, "bias_constraint": null}, "name": "conv2d_377", "inbound_nodes": [[["activation_376", 0, 0, {}]]]}, {"class_name": "BatchNormalization", "config": {"name": "batch_normalization_377", "trainable": false, "dtype": "float32", "axis": [3], "momentum": 0.99, "epsilon": 0.001, "center": true, "scale": false, "beta_initializer": {"class_name": "Zeros", "config": {}}, "gamma_initializer": {"class_name": "Ones", "config": {}}, "moving_mean_initializer": {"class_name": "Zeros", "config": {}}, "moving_variance_initializer": {"class_name": "Ones", "config": {}}, "beta_regularizer": null, "gamma_regularizer": null, "beta_constraint": null, "gamma_constraint": null}, "name": "batch_normalization_377", "inbound_nodes": [[["conv2d_377", 0, 0, {}]]]}, {"class_name": "Activation", "config": {"name": "activation_377", "trainable": false, "dtype": "float32", "activation": "relu"}, "name": "activation_377", "inbound_nodes": [[["batch_normalization_377", 0, 0, {}]]]}, {"class_name": "Conv2D", "config": {"name": "conv2d_378", "trainable": false, "dtype": "float32", "filters": 64, "kernel_size": [3, 3], "strides": [1, 1], "padding": "same", "data_format": "channels_last", "dilation_rate": [1, 1], "groups": 1, "activation": "linear", "use_bias": false, "kernel_initializer": {"class_name": "GlorotUniform", "config": {"seed": null}}, "bias_initializer": {"class_name": "Zeros", "config": {}}, "kernel_regularizer": null, "bias_regularizer": null, "activity_regularizer": null, "kernel_constraint": null, "bias_constraint": null}, "name": "conv2d_378", "inbound_nodes": [[["activation_377", 0, 0, {}]]]}, {"class_name": "BatchNormalization", "config": {"name": "batch_normalization_378", "trainable": false, "dtype": "float32", "axis": [3], "momentum": 0.99, "epsilon": 0.001, "center": true, "scale": false, "beta_initializer": {"class_name": "Zeros", "config": {}}, "gamma_initializer": {"class_name": "Ones", "config": {}}, "moving_mean_initializer": {"class_name": "Zeros", "config": {}}, "moving_variance_initializer": {"class_name": "Ones", "config": {}}, "beta_regularizer": null, "gamma_regularizer": null, "beta_constraint": null, "gamma_constraint": null}, "name": "batch_normalization_378", "inbound_nodes": [[["conv2d_378", 0, 0, {}]]]}, {"class_name": "Activation", "config": {"name": "activation_378", "trainable": false, "dtype": "float32", "activation": "relu"}, "name": "activation_378", "inbound_nodes": [[["batch_normalization_378", 0, 0, {}]]]}, {"class_name": "MaxPooling2D", "config": {"name": "max_pooling2d_16", "trainable": false, "dtype": "float32", "pool_size": [3, 3], "padding": "valid", "strides": [2, 2], "data_format": "channels_last"}, "name": "max_pooling2d_16", "inbound_nodes": [[["activation_378", 0, 0, {}]]]}, {"class_name": "Conv2D", "config": {"name": "conv2d_379", "trainable": false, "dtype": "float32", "filters": 80, "kernel_size": [1, 1], "strides": [1, 1], "padding": "valid", "data_format": "channels_last", "dilation_rate": [1, 1], "groups": 1, "activation": "linear", "use_bias": false, "kernel_initializer": {"class_name": "GlorotUniform", "config": {"seed": null}}, "bias_initializer": {"class_name": "Zeros", "config": {}}, "kernel_regularizer": null, "bias_regularizer": null, "activity_regularizer": null, "kernel_constraint": null, "bias_constraint": null}, "name": "conv2d_379", "inbound_nodes": [[["max_pooling2d_16", 0, 0, {}]]]}, {"class_name": "BatchNormalization", "config": {"name": "batch_normalization_379", "trainable": false, "dtype": "float32", "axis": [3], "momentum": 0.99, "epsilon": 0.001, "center": true, "scale": false, "beta_initializer": {"class_name": "Zeros", "config": {}}, "gamma_initializer": {"class_name": "Ones", "config": {}}, "moving_mean_initializer": {"class_name": "Zeros", "config": {}}, "moving_variance_initializer": {"class_name": "Ones", "config": {}}, "beta_regularizer": null, "gamma_regularizer": null, "beta_constraint": null, "gamma_constraint": null}, "name": "batch_normalization_379", "inbound_nodes": [[["conv2d_379", 0, 0, {}]]]}, {"class_name": "Activation", "config": {"name": "activation_379", "trainable": false, "dtype": "float32", "activation": "relu"}, "name": "activation_379", "inbound_nodes": [[["batch_normalization_379", 0, 0, {}]]]}, {"class_name": "Conv2D", "config": {"name": "conv2d_380", "trainable": false, "dtype": "float32", "filters": 192, "kernel_size": [3, 3], "strides": [1, 1], "padding": "valid", "data_format": "channels_last", "dilation_rate": [1, 1], "groups": 1, "activation": "linear", "use_bias": false, "kernel_initializer": {"class_name": "GlorotUniform", "config": {"seed": null}}, "bias_initializer": {"class_name": "Zeros", "config": {}}, "kernel_regularizer": null, "bias_regularizer": null, "activity_regularizer": null, "kernel_constraint": null, "bias_constraint": null}, "name": "conv2d_380", "inbound_nodes": [[["activation_379", 0, 0, {}]]]}, {"class_name": "BatchNormalization", "config": {"name": "batch_normalization_380", "trainable": false, "dtype": "float32", "axis": [3], "momentum": 0.99, "epsilon": 0.001, "center": true, "scale": false, "beta_initializer": {"class_name": "Zeros", "config": {}}, "gamma_initializer": {"class_name": "Ones", "config": {}}, "moving_mean_initializer": {"class_name": "Zeros", "config": {}}, "moving_variance_initializer": {"class_name": "Ones", "config": {}}, "beta_regularizer": null, "gamma_regularizer": null, "beta_constraint": null, "gamma_constraint": null}, "name": "batch_normalization_380", "inbound_nodes": [[["conv2d_380", 0, 0, {}]]]}, {"class_name": "Activation", "config": {"name": "activation_380", "trainable": false, "dtype": "float32", "activation": "relu"}, "name": "activation_380", "inbound_nodes": [[["batch_normalization_380", 0, 0, {}]]]}, {"class_name": "MaxPooling2D", "config": {"name": "max_pooling2d_17", "trainable": false, "dtype": "float32", "pool_size": [3, 3], "padding": "valid", "strides": [2, 2], "data_format": "channels_last"}, "name": "max_pooling2d_17", "inbound_nodes": [[["activation_380", 0, 0, {}]]]}, {"class_name": "Conv2D", "config": {"name": "conv2d_384", "trainable": false, "dtype": "float32", "filters": 64, "kernel_size": [1, 1], "strides": [1, 1], "padding": "same", "data_format": "channels_last", "dilation_rate": [1, 1], "groups": 1, "activation": "linear", "use_bias": false, "kernel_initializer": {"class_name": "GlorotUniform", "config": {"seed": null}}, "bias_initializer": {"class_name": "Zeros", "config": {}}, "kernel_regularizer": null, "bias_regularizer": null, "activity_regularizer": null, "kernel_constraint": null, "bias_constraint": null}, "name": "conv2d_384", "inbound_nodes": [[["max_pooling2d_17", 0, 0, {}]]]}, {"class_name": "BatchNormalization", "config": {"name": "batch_normalization_384", "trainable": false, "dtype": "float32", "axis": [3], "momentum": 0.99, "epsilon": 0.001, "center": true, "scale": false, "beta_initializer": {"class_name": "Zeros", "config": {}}, "gamma_initializer": {"class_name": "Ones", "config": {}}, "moving_mean_initializer": {"class_name": "Zeros", "config": {}}, "moving_variance_initializer": {"class_name": "Ones", "config": {}}, "beta_regularizer": null, "gamma_regularizer": null, "beta_constraint": null, "gamma_constraint": null}, "name": "batch_normalization_384", "inbound_nodes": [[["conv2d_384", 0, 0, {}]]]}, {"class_name": "Activation", "config": {"name": "activation_384", "trainable": false, "dtype": "float32", "activation": "relu"}, "name": "activation_384", "inbound_nodes": [[["batch_normalization_384", 0, 0, {}]]]}, {"class_name": "Conv2D", "config": {"name": "conv2d_382", "trainable": false, "dtype": "float32", "filters": 48, "kernel_size": [1, 1], "strides": [1, 1], "padding": "same", "data_format": "channels_last", "dilation_rate": [1, 1], "groups": 1, "activation": "linear", "use_bias": false, "kernel_initializer": {"class_name": "GlorotUniform", "config": {"seed": null}}, "bias_initializer": {"class_name": "Zeros", "config": {}}, "kernel_regularizer": null, "bias_regularizer": null, "activity_regularizer": null, "kernel_constraint": null, "bias_constraint": null}, "name": "conv2d_382", "inbound_nodes": [[["max_pooling2d_17", 0, 0, {}]]]}, {"class_name": "Conv2D", "config": {"name": "conv2d_385", "trainable": false, "dtype": "float32", "filters": 96, "kernel_size": [3, 3], "strides": [1, 1], "padding": "same", "data_format": "channels_last", "dilation_rate": [1, 1], "groups": 1, "activation": "linear", "use_bias": false, "kernel_initializer": {"class_name": "GlorotUniform", "config": {"seed": null}}, "bias_initializer": {"class_name": "Zeros", "config": {}}, "kernel_regularizer": null, "bias_regularizer": null, "activity_regularizer": null, "kernel_constraint": null, "bias_constraint": null}, "name": "conv2d_385", "inbound_nodes": [[["activation_384", 0, 0, {}]]]}, {"class_name": "BatchNormalization", "config": {"name": "batch_normalization_382", "trainable": false, "dtype": "float32", "axis": [3], "momentum": 0.99, "epsilon": 0.001, "center": true, "scale": false, "beta_initializer": {"class_name": "Zeros", "config": {}}, "gamma_initializer": {"class_name": "Ones", "config": {}}, "moving_mean_initializer": {"class_name": "Zeros", "config": {}}, "moving_variance_initializer": {"class_name": "Ones", "config": {}}, "beta_regularizer": null, "gamma_regularizer": null, "beta_constraint": null, "gamma_constraint": null}, "name": "batch_normalization_382", "inbound_nodes": [[["conv2d_382", 0, 0, {}]]]}, {"class_name": "BatchNormalization", "config": {"name": "batch_normalization_385", "trainable": false, "dtype": "float32", "axis": [3], "momentum": 0.99, "epsilon": 0.001, "center": true, "scale": false, "beta_initializer": {"class_name": "Zeros", "config": {}}, "gamma_initializer": {"class_name": "Ones", "config": {}}, "moving_mean_initializer": {"class_name": "Zeros", "config": {}}, "moving_variance_initializer": {"class_name": "Ones", "config": {}}, "beta_regularizer": null, "gamma_regularizer": null, "beta_constraint": null, "gamma_constraint": null}, "name": "batch_normalization_385", "inbound_nodes": [[["conv2d_385", 0, 0, {}]]]}, {"class_name": "Activation", "config": {"name": "activation_382", "trainable": false, "dtype": "float32", "activation": "relu"}, "name": "activation_382", "inbound_nodes": [[["batch_normalization_382", 0, 0, {}]]]}, {"class_name": "Activation", "config": {"name": "activation_385", "trainable": false, "dtype": "float32", "activation": "relu"}, "name": "activation_385", "inbound_nodes": [[["batch_normalization_385", 0, 0, {}]]]}, {"class_name": "AveragePooling2D", "config": {"name": "average_pooling2d_36", "trainable": false, "dtype": "float32", "pool_size": [3, 3], "padding": "same", "strides": [1, 1], "data_format": "channels_last"}, "name": "average_pooling2d_36", "inbound_nodes": [[["max_pooling2d_17", 0, 0, {}]]]}, {"class_name": "Conv2D", "config": {"name": "conv2d_381", "trainable": false, "dtype": "float32", "filters": 64, "kernel_size": [1, 1], "strides": [1, 1], "padding": "same", "data_format": "channels_last", "dilation_rate": [1, 1], "groups": 1, "activation": "linear", "use_bias": false, "kernel_initializer": {"class_name": "GlorotUniform", "config": {"seed": null}}, "bias_initializer": {"class_name": "Zeros", "config": {}}, "kernel_regularizer": null, "bias_regularizer": null, "activity_regularizer": null, "kernel_constraint": null, "bias_constraint": null}, "name": "conv2d_381", "inbound_nodes": [[["max_pooling2d_17", 0, 0, {}]]]}, {"class_name": "Conv2D", "config": {"name": "conv2d_383", "trainable": false, "dtype": "float32", "filters": 64, "kernel_size": [5, 5], "strides": [1, 1], "padding": "same", "data_format": "channels_last", "dilation_rate": [1, 1], "groups": 1, "activation": "linear", "use_bias": false, "kernel_initializer": {"class_name": "GlorotUniform", "config": {"seed": null}}, "bias_initializer": {"class_name": "Zeros", "config": {}}, "kernel_regularizer": null, "bias_regularizer": null, "activity_regularizer": null, "kernel_constraint": null, "bias_constraint": null}, "name": "conv2d_383", "inbound_nodes": [[["activation_382", 0, 0, {}]]]}, {"class_name": "Conv2D", "config": {"name": "conv2d_386", "trainable": false, "dtype": "float32", "filters": 96, "kernel_size": [3, 3], "strides": [1, 1], "padding": "same", "data_format": "channels_last", "dilation_rate": [1, 1], "groups": 1, "activation": "linear", "use_bias": false, "kernel_initializer": {"class_name": "GlorotUniform", "config": {"seed": null}}, "bias_initializer": {"class_name": "Zeros", "config": {}}, "kernel_regularizer": null, "bias_regularizer": null, "activity_regularizer": null, "kernel_constraint": null, "bias_constraint": null}, "name": "conv2d_386", "inbound_nodes": [[["activation_385", 0, 0, {}]]]}, {"class_name": "Conv2D", "config": {"name": "conv2d_387", "trainable": false, "dtype": "float32", "filters": 32, "kernel_size": [1, 1], "strides": [1, 1], "padding": "same", "data_format": "channels_last", "dilation_rate": [1, 1], "groups": 1, "activation": "linear", "use_bias": false, "kernel_initializer": {"class_name": "GlorotUniform", "config": {"seed": null}}, "bias_initializer": {"class_name": "Zeros", "config": {}}, "kernel_regularizer": null, "bias_regularizer": null, "activity_regularizer": null, "kernel_constraint": null, "bias_constraint": null}, "name": "conv2d_387", "inbound_nodes": [[["average_pooling2d_36", 0, 0, {}]]]}, {"class_name": "BatchNormalization", "config": {"name": "batch_normalization_381", "trainable": false, "dtype": "float32", "axis": [3], "momentum": 0.99, "epsilon": 0.001, "center": true, "scale": false, "beta_initializer": {"class_name": "Zeros", "config": {}}, "gamma_initializer": {"class_name": "Ones", "config": {}}, "moving_mean_initializer": {"class_name": "Zeros", "config": {}}, "moving_variance_initializer": {"class_name": "Ones", "config": {}}, "beta_regularizer": null, "gamma_regularizer": null, "beta_constraint": null, "gamma_constraint": null}, "name": "batch_normalization_381", "inbound_nodes": [[["conv2d_381", 0, 0, {}]]]}, {"class_name": "BatchNormalization", "config": {"name": "batch_normalization_383", "trainable": false, "dtype": "float32", "axis": [3], "momentum": 0.99, "epsilon": 0.001, "center": true, "scale": false, "beta_initializer": {"class_name": "Zeros", "config": {}}, "gamma_initializer": {"class_name": "Ones", "config": {}}, "moving_mean_initializer": {"class_name": "Zeros", "config": {}}, "moving_variance_initializer": {"class_name": "Ones", "config": {}}, "beta_regularizer": null, "gamma_regularizer": null, "beta_constraint": null, "gamma_constraint": null}, "name": "batch_normalization_383", "inbound_nodes": [[["conv2d_383", 0, 0, {}]]]}, {"class_name": "BatchNormalization", "config": {"name": "batch_normalization_386", "trainable": false, "dtype": "float32", "axis": [3], "momentum": 0.99, "epsilon": 0.001, "center": true, "scale": false, "beta_initializer": {"class_name": "Zeros", "config": {}}, "gamma_initializer": {"class_name": "Ones", "config": {}}, "moving_mean_initializer": {"class_name": "Zeros", "config": {}}, "moving_variance_initializer": {"class_name": "Ones", "config": {}}, "beta_regularizer": null, "gamma_regularizer": null, "beta_constraint": null, "gamma_constraint": null}, "name": "batch_normalization_386", "inbound_nodes": [[["conv2d_386", 0, 0, {}]]]}, {"class_name": "BatchNormalization", "config": {"name": "batch_normalization_387", "trainable": false, "dtype": "float32", "axis": [3], "momentum": 0.99, "epsilon": 0.001, "center": true, "scale": false, "beta_initializer": {"class_name": "Zeros", "config": {}}, "gamma_initializer": {"class_name": "Ones", "config": {}}, "moving_mean_initializer": {"class_name": "Zeros", "config": {}}, "moving_variance_initializer": {"class_name": "Ones", "config": {}}, "beta_regularizer": null, "gamma_regularizer": null, "beta_constraint": null, "gamma_constraint": null}, "name": "batch_normalization_387", "inbound_nodes": [[["conv2d_387", 0, 0, {}]]]}, {"class_name": "Activation", "config": {"name": "activation_381", "trainable": false, "dtype": "float32", "activation": "relu"}, "name": "activation_381", "inbound_nodes": [[["batch_normalization_381", 0, 0, {}]]]}, {"class_name": "Activation", "config": {"name": "activation_383", "trainable": false, "dtype": "float32", "activation": "relu"}, "name": "activation_383", "inbound_nodes": [[["batch_normalization_383", 0, 0, {}]]]}, {"class_name": "Activation", "config": {"name": "activation_386", "trainable": false, "dtype": "float32", "activation": "relu"}, "name": "activation_386", "inbound_nodes": [[["batch_normalization_386", 0, 0, {}]]]}, {"class_name": "Activation", "config": {"name": "activation_387", "trainable": false, "dtype": "float32", "activation": "relu"}, "name": "activation_387", "inbound_nodes": [[["batch_normalization_387", 0, 0, {}]]]}, {"class_name": "Concatenate", "config": {"name": "mixed0", "trainable": false, "dtype": "float32", "axis": 3}, "name": "mixed0", "inbound_nodes": [[["activation_381", 0, 0, {}], ["activation_383", 0, 0, {}], ["activation_386", 0, 0, {}], ["activation_387", 0, 0, {}]]]}, {"class_name": "Conv2D", "config": {"name": "conv2d_391", "trainable": false, "dtype": "float32", "filters": 64, "kernel_size": [1, 1], "strides": [1, 1], "padding": "same", "data_format": "channels_last", "dilation_rate": [1, 1], "groups": 1, "activation": "linear", "use_bias": false, "kernel_initializer": {"class_name": "GlorotUniform", "config": {"seed": null}}, "bias_initializer": {"class_name": "Zeros", "config": {}}, "kernel_regularizer": null, "bias_regularizer": null, "activity_regularizer": null, "kernel_constraint": null, "bias_constraint": null}, "name": "conv2d_391", "inbound_nodes": [[["mixed0", 0, 0, {}]]]}, {"class_name": "BatchNormalization", "config": {"name": "batch_normalization_391", "trainable": false, "dtype": "float32", "axis": [3], "momentum": 0.99, "epsilon": 0.001, "center": true, "scale": false, "beta_initializer": {"class_name": "Zeros", "config": {}}, "gamma_initializer": {"class_name": "Ones", "config": {}}, "moving_mean_initializer": {"class_name": "Zeros", "config": {}}, "moving_variance_initializer": {"class_name": "Ones", "config": {}}, "beta_regularizer": null, "gamma_regularizer": null, "beta_constraint": null, "gamma_constraint": null}, "name": "batch_normalization_391", "inbound_nodes": [[["conv2d_391", 0, 0, {}]]]}, {"class_name": "Activation", "config": {"name": "activation_391", "trainable": false, "dtype": "float32", "activation": "relu"}, "name": "activation_391", "inbound_nodes": [[["batch_normalization_391", 0, 0, {}]]]}, {"class_name": "Conv2D", "config": {"name": "conv2d_389", "trainable": false, "dtype": "float32", "filters": 48, "kernel_size": [1, 1], "strides": [1, 1], "padding": "same", "data_format": "channels_last", "dilation_rate": [1, 1], "groups": 1, "activation": "linear", "use_bias": false, "kernel_initializer": {"class_name": "GlorotUniform", "config": {"seed": null}}, "bias_initializer": {"class_name": "Zeros", "config": {}}, "kernel_regularizer": null, "bias_regularizer": null, "activity_regularizer": null, "kernel_constraint": null, "bias_constraint": null}, "name": "conv2d_389", "inbound_nodes": [[["mixed0", 0, 0, {}]]]}, {"class_name": "Conv2D", "config": {"name": "conv2d_392", "trainable": false, "dtype": "float32", "filters": 96, "kernel_size": [3, 3], "strides": [1, 1], "padding": "same", "data_format": "channels_last", "dilation_rate": [1, 1], "groups": 1, "activation": "linear", "use_bias": false, "kernel_initializer": {"class_name": "GlorotUniform", "config": {"seed": null}}, "bias_initializer": {"class_name": "Zeros", "config": {}}, "kernel_regularizer": null, "bias_regularizer": null, "activity_regularizer": null, "kernel_constraint": null, "bias_constraint": null}, "name": "conv2d_392", "inbound_nodes": [[["activation_391", 0, 0, {}]]]}, {"class_name": "BatchNormalization", "config": {"name": "batch_normalization_389", "trainable": false, "dtype": "float32", "axis": [3], "momentum": 0.99, "epsilon": 0.001, "center": true, "scale": false, "beta_initializer": {"class_name": "Zeros", "config": {}}, "gamma_initializer": {"class_name": "Ones", "config": {}}, "moving_mean_initializer": {"class_name": "Zeros", "config": {}}, "moving_variance_initializer": {"class_name": "Ones", "config": {}}, "beta_regularizer": null, "gamma_regularizer": null, "beta_constraint": null, "gamma_constraint": null}, "name": "batch_normalization_389", "inbound_nodes": [[["conv2d_389", 0, 0, {}]]]}, {"class_name": "BatchNormalization", "config": {"name": "batch_normalization_392", "trainable": false, "dtype": "float32", "axis": [3], "momentum": 0.99, "epsilon": 0.001, "center": true, "scale": false, "beta_initializer": {"class_name": "Zeros", "config": {}}, "gamma_initializer": {"class_name": "Ones", "config": {}}, "moving_mean_initializer": {"class_name": "Zeros", "config": {}}, "moving_variance_initializer": {"class_name": "Ones", "config": {}}, "beta_regularizer": null, "gamma_regularizer": null, "beta_constraint": null, "gamma_constraint": null}, "name": "batch_normalization_392", "inbound_nodes": [[["conv2d_392", 0, 0, {}]]]}, {"class_name": "Activation", "config": {"name": "activation_389", "trainable": false, "dtype": "float32", "activation": "relu"}, "name": "activation_389", "inbound_nodes": [[["batch_normalization_389", 0, 0, {}]]]}, {"class_name": "Activation", "config": {"name": "activation_392", "trainable": false, "dtype": "float32", "activation": "relu"}, "name": "activation_392", "inbound_nodes": [[["batch_normalization_392", 0, 0, {}]]]}, {"class_name": "AveragePooling2D", "config": {"name": "average_pooling2d_37", "trainable": false, "dtype": "float32", "pool_size": [3, 3], "padding": "same", "strides": [1, 1], "data_format": "channels_last"}, "name": "average_pooling2d_37", "inbound_nodes": [[["mixed0", 0, 0, {}]]]}, {"class_name": "Conv2D", "config": {"name": "conv2d_388", "trainable": false, "dtype": "float32", "filters": 64, "kernel_size": [1, 1], "strides": [1, 1], "padding": "same", "data_format": "channels_last", "dilation_rate": [1, 1], "groups": 1, "activation": "linear", "use_bias": false, "kernel_initializer": {"class_name": "GlorotUniform", "config": {"seed": null}}, "bias_initializer": {"class_name": "Zeros", "config": {}}, "kernel_regularizer": null, "bias_regularizer": null, "activity_regularizer": null, "kernel_constraint": null, "bias_constraint": null}, "name": "conv2d_388", "inbound_nodes": [[["mixed0", 0, 0, {}]]]}, {"class_name": "Conv2D", "config": {"name": "conv2d_390", "trainable": false, "dtype": "float32", "filters": 64, "kernel_size": [5, 5], "strides": [1, 1], "padding": "same", "data_format": "channels_last", "dilation_rate": [1, 1], "groups": 1, "activation": "linear", "use_bias": false, "kernel_initializer": {"class_name": "GlorotUniform", "config": {"seed": null}}, "bias_initializer": {"class_name": "Zeros", "config": {}}, "kernel_regularizer": null, "bias_regularizer": null, "activity_regularizer": null, "kernel_constraint": null, "bias_constraint": null}, "name": "conv2d_390", "inbound_nodes": [[["activation_389", 0, 0, {}]]]}, {"class_name": "Conv2D", "config": {"name": "conv2d_393", "trainable": false, "dtype": "float32", "filters": 96, "kernel_size": [3, 3], "strides": [1, 1], "padding": "same", "data_format": "channels_last", "dilation_rate": [1, 1], "groups": 1, "activation": "linear", "use_bias": false, "kernel_initializer": {"class_name": "GlorotUniform", "config": {"seed": null}}, "bias_initializer": {"class_name": "Zeros", "config": {}}, "kernel_regularizer": null, "bias_regularizer": null, "activity_regularizer": null, "kernel_constraint": null, "bias_constraint": null}, "name": "conv2d_393", "inbound_nodes": [[["activation_392", 0, 0, {}]]]}, {"class_name": "Conv2D", "config": {"name": "conv2d_394", "trainable": false, "dtype": "float32", "filters": 64, "kernel_size": [1, 1], "strides": [1, 1], "padding": "same", "data_format": "channels_last", "dilation_rate": [1, 1], "groups": 1, "activation": "linear", "use_bias": false, "kernel_initializer": {"class_name": "GlorotUniform", "config": {"seed": null}}, "bias_initializer": {"class_name": "Zeros", "config": {}}, "kernel_regularizer": null, "bias_regularizer": null, "activity_regularizer": null, "kernel_constraint": null, "bias_constraint": null}, "name": "conv2d_394", "inbound_nodes": [[["average_pooling2d_37", 0, 0, {}]]]}, {"class_name": "BatchNormalization", "config": {"name": "batch_normalization_388", "trainable": false, "dtype": "float32", "axis": [3], "momentum": 0.99, "epsilon": 0.001, "center": true, "scale": false, "beta_initializer": {"class_name": "Zeros", "config": {}}, "gamma_initializer": {"class_name": "Ones", "config": {}}, "moving_mean_initializer": {"class_name": "Zeros", "config": {}}, "moving_variance_initializer": {"class_name": "Ones", "config": {}}, "beta_regularizer": null, "gamma_regularizer": null, "beta_constraint": null, "gamma_constraint": null}, "name": "batch_normalization_388", "inbound_nodes": [[["conv2d_388", 0, 0, {}]]]}, {"class_name": "BatchNormalization", "config": {"name": "batch_normalization_390", "trainable": false, "dtype": "float32", "axis": [3], "momentum": 0.99, "epsilon": 0.001, "center": true, "scale": false, "beta_initializer": {"class_name": "Zeros", "config": {}}, "gamma_initializer": {"class_name": "Ones", "config": {}}, "moving_mean_initializer": {"class_name": "Zeros", "config": {}}, "moving_variance_initializer": {"class_name": "Ones", "config": {}}, "beta_regularizer": null, "gamma_regularizer": null, "beta_constraint": null, "gamma_constraint": null}, "name": "batch_normalization_390", "inbound_nodes": [[["conv2d_390", 0, 0, {}]]]}, {"class_name": "BatchNormalization", "config": {"name": "batch_normalization_393", "trainable": false, "dtype": "float32", "axis": [3], "momentum": 0.99, "epsilon": 0.001, "center": true, "scale": false, "beta_initializer": {"class_name": "Zeros", "config": {}}, "gamma_initializer": {"class_name": "Ones", "config": {}}, "moving_mean_initializer": {"class_name": "Zeros", "config": {}}, "moving_variance_initializer": {"class_name": "Ones", "config": {}}, "beta_regularizer": null, "gamma_regularizer": null, "beta_constraint": null, "gamma_constraint": null}, "name": "batch_normalization_393", "inbound_nodes": [[["conv2d_393", 0, 0, {}]]]}, {"class_name": "BatchNormalization", "config": {"name": "batch_normalization_394", "trainable": false, "dtype": "float32", "axis": [3], "momentum": 0.99, "epsilon": 0.001, "center": true, "scale": false, "beta_initializer": {"class_name": "Zeros", "config": {}}, "gamma_initializer": {"class_name": "Ones", "config": {}}, "moving_mean_initializer": {"class_name": "Zeros", "config": {}}, "moving_variance_initializer": {"class_name": "Ones", "config": {}}, "beta_regularizer": null, "gamma_regularizer": null, "beta_constraint": null, "gamma_constraint": null}, "name": "batch_normalization_394", "inbound_nodes": [[["conv2d_394", 0, 0, {}]]]}, {"class_name": "Activation", "config": {"name": "activation_388", "trainable": false, "dtype": "float32", "activation": "relu"}, "name": "activation_388", "inbound_nodes": [[["batch_normalization_388", 0, 0, {}]]]}, {"class_name": "Activation", "config": {"name": "activation_390", "trainable": false, "dtype": "float32", "activation": "relu"}, "name": "activation_390", "inbound_nodes": [[["batch_normalization_390", 0, 0, {}]]]}, {"class_name": "Activation", "config": {"name": "activation_393", "trainable": false, "dtype": "float32", "activation": "relu"}, "name": "activation_393", "inbound_nodes": [[["batch_normalization_393", 0, 0, {}]]]}, {"class_name": "Activation", "config": {"name": "activation_394", "trainable": false, "dtype": "float32", "activation": "relu"}, "name": "activation_394", "inbound_nodes": [[["batch_normalization_394", 0, 0, {}]]]}, {"class_name": "Concatenate", "config": {"name": "mixed1", "trainable": false, "dtype": "float32", "axis": 3}, "name": "mixed1", "inbound_nodes": [[["activation_388", 0, 0, {}], ["activation_390", 0, 0, {}], ["activation_393", 0, 0, {}], ["activation_394", 0, 0, {}]]]}, {"class_name": "Conv2D", "config": {"name": "conv2d_398", "trainable": false, "dtype": "float32", "filters": 64, "kernel_size": [1, 1], "strides": [1, 1], "padding": "same", "data_format": "channels_last", "dilation_rate": [1, 1], "groups": 1, "activation": "linear", "use_bias": false, "kernel_initializer": {"class_name": "GlorotUniform", "config": {"seed": null}}, "bias_initializer": {"class_name": "Zeros", "config": {}}, "kernel_regularizer": null, "bias_regularizer": null, "activity_regularizer": null, "kernel_constraint": null, "bias_constraint": null}, "name": "conv2d_398", "inbound_nodes": [[["mixed1", 0, 0, {}]]]}, {"class_name": "BatchNormalization", "config": {"name": "batch_normalization_398", "trainable": false, "dtype": "float32", "axis": [3], "momentum": 0.99, "epsilon": 0.001, "center": true, "scale": false, "beta_initializer": {"class_name": "Zeros", "config": {}}, "gamma_initializer": {"class_name": "Ones", "config": {}}, "moving_mean_initializer": {"class_name": "Zeros", "config": {}}, "moving_variance_initializer": {"class_name": "Ones", "config": {}}, "beta_regularizer": null, "gamma_regularizer": null, "beta_constraint": null, "gamma_constraint": null}, "name": "batch_normalization_398", "inbound_nodes": [[["conv2d_398", 0, 0, {}]]]}, {"class_name": "Activation", "config": {"name": "activation_398", "trainable": false, "dtype": "float32", "activation": "relu"}, "name": "activation_398", "inbound_nodes": [[["batch_normalization_398", 0, 0, {}]]]}, {"class_name": "Conv2D", "config": {"name": "conv2d_396", "trainable": false, "dtype": "float32", "filters": 48, "kernel_size": [1, 1], "strides": [1, 1], "padding": "same", "data_format": "channels_last", "dilation_rate": [1, 1], "groups": 1, "activation": "linear", "use_bias": false, "kernel_initializer": {"class_name": "GlorotUniform", "config": {"seed": null}}, "bias_initializer": {"class_name": "Zeros", "config": {}}, "kernel_regularizer": null, "bias_regularizer": null, "activity_regularizer": null, "kernel_constraint": null, "bias_constraint": null}, "name": "conv2d_396", "inbound_nodes": [[["mixed1", 0, 0, {}]]]}, {"class_name": "Conv2D", "config": {"name": "conv2d_399", "trainable": false, "dtype": "float32", "filters": 96, "kernel_size": [3, 3], "strides": [1, 1], "padding": "same", "data_format": "channels_last", "dilation_rate": [1, 1], "groups": 1, "activation": "linear", "use_bias": false, "kernel_initializer": {"class_name": "GlorotUniform", "config": {"seed": null}}, "bias_initializer": {"class_name": "Zeros", "config": {}}, "kernel_regularizer": null, "bias_regularizer": null, "activity_regularizer": null, "kernel_constraint": null, "bias_constraint": null}, "name": "conv2d_399", "inbound_nodes": [[["activation_398", 0, 0, {}]]]}, {"class_name": "BatchNormalization", "config": {"name": "batch_normalization_396", "trainable": false, "dtype": "float32", "axis": [3], "momentum": 0.99, "epsilon": 0.001, "center": true, "scale": false, "beta_initializer": {"class_name": "Zeros", "config": {}}, "gamma_initializer": {"class_name": "Ones", "config": {}}, "moving_mean_initializer": {"class_name": "Zeros", "config": {}}, "moving_variance_initializer": {"class_name": "Ones", "config": {}}, "beta_regularizer": null, "gamma_regularizer": null, "beta_constraint": null, "gamma_constraint": null}, "name": "batch_normalization_396", "inbound_nodes": [[["conv2d_396", 0, 0, {}]]]}, {"class_name": "BatchNormalization", "config": {"name": "batch_normalization_399", "trainable": false, "dtype": "float32", "axis": [3], "momentum": 0.99, "epsilon": 0.001, "center": true, "scale": false, "beta_initializer": {"class_name": "Zeros", "config": {}}, "gamma_initializer": {"class_name": "Ones", "config": {}}, "moving_mean_initializer": {"class_name": "Zeros", "config": {}}, "moving_variance_initializer": {"class_name": "Ones", "config": {}}, "beta_regularizer": null, "gamma_regularizer": null, "beta_constraint": null, "gamma_constraint": null}, "name": "batch_normalization_399", "inbound_nodes": [[["conv2d_399", 0, 0, {}]]]}, {"class_name": "Activation", "config": {"name": "activation_396", "trainable": false, "dtype": "float32", "activation": "relu"}, "name": "activation_396", "inbound_nodes": [[["batch_normalization_396", 0, 0, {}]]]}, {"class_name": "Activation", "config": {"name": "activation_399", "trainable": false, "dtype": "float32", "activation": "relu"}, "name": "activation_399", "inbound_nodes": [[["batch_normalization_399", 0, 0, {}]]]}, {"class_name": "AveragePooling2D", "config": {"name": "average_pooling2d_38", "trainable": false, "dtype": "float32", "pool_size": [3, 3], "padding": "same", "strides": [1, 1], "data_format": "channels_last"}, "name": "average_pooling2d_38", "inbound_nodes": [[["mixed1", 0, 0, {}]]]}, {"class_name": "Conv2D", "config": {"name": "conv2d_395", "trainable": false, "dtype": "float32", "filters": 64, "kernel_size": [1, 1], "strides": [1, 1], "padding": "same", "data_format": "channels_last", "dilation_rate": [1, 1], "groups": 1, "activation": "linear", "use_bias": false, "kernel_initializer": {"class_name": "GlorotUniform", "config": {"seed": null}}, "bias_initializer": {"class_name": "Zeros", "config": {}}, "kernel_regularizer": null, "bias_regularizer": null, "activity_regularizer": null, "kernel_constraint": null, "bias_constraint": null}, "name": "conv2d_395", "inbound_nodes": [[["mixed1", 0, 0, {}]]]}, {"class_name": "Conv2D", "config": {"name": "conv2d_397", "trainable": false, "dtype": "float32", "filters": 64, "kernel_size": [5, 5], "strides": [1, 1], "padding": "same", "data_format": "channels_last", "dilation_rate": [1, 1], "groups": 1, "activation": "linear", "use_bias": false, "kernel_initializer": {"class_name": "GlorotUniform", "config": {"seed": null}}, "bias_initializer": {"class_name": "Zeros", "config": {}}, "kernel_regularizer": null, "bias_regularizer": null, "activity_regularizer": null, "kernel_constraint": null, "bias_constraint": null}, "name": "conv2d_397", "inbound_nodes": [[["activation_396", 0, 0, {}]]]}, {"class_name": "Conv2D", "config": {"name": "conv2d_400", "trainable": false, "dtype": "float32", "filters": 96, "kernel_size": [3, 3], "strides": [1, 1], "padding": "same", "data_format": "channels_last", "dilation_rate": [1, 1], "groups": 1, "activation": "linear", "use_bias": false, "kernel_initializer": {"class_name": "GlorotUniform", "config": {"seed": null}}, "bias_initializer": {"class_name": "Zeros", "config": {}}, "kernel_regularizer": null, "bias_regularizer": null, "activity_regularizer": null, "kernel_constraint": null, "bias_constraint": null}, "name": "conv2d_400", "inbound_nodes": [[["activation_399", 0, 0, {}]]]}, {"class_name": "Conv2D", "config": {"name": "conv2d_401", "trainable": false, "dtype": "float32", "filters": 64, "kernel_size": [1, 1], "strides": [1, 1], "padding": "same", "data_format": "channels_last", "dilation_rate": [1, 1], "groups": 1, "activation": "linear", "use_bias": false, "kernel_initializer": {"class_name": "GlorotUniform", "config": {"seed": null}}, "bias_initializer": {"class_name": "Zeros", "config": {}}, "kernel_regularizer": null, "bias_regularizer": null, "activity_regularizer": null, "kernel_constraint": null, "bias_constraint": null}, "name": "conv2d_401", "inbound_nodes": [[["average_pooling2d_38", 0, 0, {}]]]}, {"class_name": "BatchNormalization", "config": {"name": "batch_normalization_395", "trainable": false, "dtype": "float32", "axis": [3], "momentum": 0.99, "epsilon": 0.001, "center": true, "scale": false, "beta_initializer": {"class_name": "Zeros", "config": {}}, "gamma_initializer": {"class_name": "Ones", "config": {}}, "moving_mean_initializer": {"class_name": "Zeros", "config": {}}, "moving_variance_initializer": {"class_name": "Ones", "config": {}}, "beta_regularizer": null, "gamma_regularizer": null, "beta_constraint": null, "gamma_constraint": null}, "name": "batch_normalization_395", "inbound_nodes": [[["conv2d_395", 0, 0, {}]]]}, {"class_name": "BatchNormalization", "config": {"name": "batch_normalization_397", "trainable": false, "dtype": "float32", "axis": [3], "momentum": 0.99, "epsilon": 0.001, "center": true, "scale": false, "beta_initializer": {"class_name": "Zeros", "config": {}}, "gamma_initializer": {"class_name": "Ones", "config": {}}, "moving_mean_initializer": {"class_name": "Zeros", "config": {}}, "moving_variance_initializer": {"class_name": "Ones", "config": {}}, "beta_regularizer": null, "gamma_regularizer": null, "beta_constraint": null, "gamma_constraint": null}, "name": "batch_normalization_397", "inbound_nodes": [[["conv2d_397", 0, 0, {}]]]}, {"class_name": "BatchNormalization", "config": {"name": "batch_normalization_400", "trainable": false, "dtype": "float32", "axis": [3], "momentum": 0.99, "epsilon": 0.001, "center": true, "scale": false, "beta_initializer": {"class_name": "Zeros", "config": {}}, "gamma_initializer": {"class_name": "Ones", "config": {}}, "moving_mean_initializer": {"class_name": "Zeros", "config": {}}, "moving_variance_initializer": {"class_name": "Ones", "config": {}}, "beta_regularizer": null, "gamma_regularizer": null, "beta_constraint": null, "gamma_constraint": null}, "name": "batch_normalization_400", "inbound_nodes": [[["conv2d_400", 0, 0, {}]]]}, {"class_name": "BatchNormalization", "config": {"name": "batch_normalization_401", "trainable": false, "dtype": "float32", "axis": [3], "momentum": 0.99, "epsilon": 0.001, "center": true, "scale": false, "beta_initializer": {"class_name": "Zeros", "config": {}}, "gamma_initializer": {"class_name": "Ones", "config": {}}, "moving_mean_initializer": {"class_name": "Zeros", "config": {}}, "moving_variance_initializer": {"class_name": "Ones", "config": {}}, "beta_regularizer": null, "gamma_regularizer": null, "beta_constraint": null, "gamma_constraint": null}, "name": "batch_normalization_401", "inbound_nodes": [[["conv2d_401", 0, 0, {}]]]}, {"class_name": "Activation", "config": {"name": "activation_395", "trainable": false, "dtype": "float32", "activation": "relu"}, "name": "activation_395", "inbound_nodes": [[["batch_normalization_395", 0, 0, {}]]]}, {"class_name": "Activation", "config": {"name": "activation_397", "trainable": false, "dtype": "float32", "activation": "relu"}, "name": "activation_397", "inbound_nodes": [[["batch_normalization_397", 0, 0, {}]]]}, {"class_name": "Activation", "config": {"name": "activation_400", "trainable": false, "dtype": "float32", "activation": "relu"}, "name": "activation_400", "inbound_nodes": [[["batch_normalization_400", 0, 0, {}]]]}, {"class_name": "Activation", "config": {"name": "activation_401", "trainable": false, "dtype": "float32", "activation": "relu"}, "name": "activation_401", "inbound_nodes": [[["batch_normalization_401", 0, 0, {}]]]}, {"class_name": "Concatenate", "config": {"name": "mixed2", "trainable": false, "dtype": "float32", "axis": 3}, "name": "mixed2", "inbound_nodes": [[["activation_395", 0, 0, {}], ["activation_397", 0, 0, {}], ["activation_400", 0, 0, {}], ["activation_401", 0, 0, {}]]]}, {"class_name": "Conv2D", "config": {"name": "conv2d_403", "trainable": false, "dtype": "float32", "filters": 64, "kernel_size": [1, 1], "strides": [1, 1], "padding": "same", "data_format": "channels_last", "dilation_rate": [1, 1], "groups": 1, "activation": "linear", "use_bias": false, "kernel_initializer": {"class_name": "GlorotUniform", "config": {"seed": null}}, "bias_initializer": {"class_name": "Zeros", "config": {}}, "kernel_regularizer": null, "bias_regularizer": null, "activity_regularizer": null, "kernel_constraint": null, "bias_constraint": null}, "name": "conv2d_403", "inbound_nodes": [[["mixed2", 0, 0, {}]]]}, {"class_name": "BatchNormalization", "config": {"name": "batch_normalization_403", "trainable": false, "dtype": "float32", "axis": [3], "momentum": 0.99, "epsilon": 0.001, "center": true, "scale": false, "beta_initializer": {"class_name": "Zeros", "config": {}}, "gamma_initializer": {"class_name": "Ones", "config": {}}, "moving_mean_initializer": {"class_name": "Zeros", "config": {}}, "moving_variance_initializer": {"class_name": "Ones", "config": {}}, "beta_regularizer": null, "gamma_regularizer": null, "beta_constraint": null, "gamma_constraint": null}, "name": "batch_normalization_403", "inbound_nodes": [[["conv2d_403", 0, 0, {}]]]}, {"class_name": "Activation", "config": {"name": "activation_403", "trainable": false, "dtype": "float32", "activation": "relu"}, "name": "activation_403", "inbound_nodes": [[["batch_normalization_403", 0, 0, {}]]]}, {"class_name": "Conv2D", "config": {"name": "conv2d_404", "trainable": false, "dtype": "float32", "filters": 96, "kernel_size": [3, 3], "strides": [1, 1], "padding": "same", "data_format": "channels_last", "dilation_rate": [1, 1], "groups": 1, "activation": "linear", "use_bias": false, "kernel_initializer": {"class_name": "GlorotUniform", "config": {"seed": null}}, "bias_initializer": {"class_name": "Zeros", "config": {}}, "kernel_regularizer": null, "bias_regularizer": null, "activity_regularizer": null, "kernel_constraint": null, "bias_constraint": null}, "name": "conv2d_404", "inbound_nodes": [[["activation_403", 0, 0, {}]]]}, {"class_name": "BatchNormalization", "config": {"name": "batch_normalization_404", "trainable": false, "dtype": "float32", "axis": [3], "momentum": 0.99, "epsilon": 0.001, "center": true, "scale": false, "beta_initializer": {"class_name": "Zeros", "config": {}}, "gamma_initializer": {"class_name": "Ones", "config": {}}, "moving_mean_initializer": {"class_name": "Zeros", "config": {}}, "moving_variance_initializer": {"class_name": "Ones", "config": {}}, "beta_regularizer": null, "gamma_regularizer": null, "beta_constraint": null, "gamma_constraint": null}, "name": "batch_normalization_404", "inbound_nodes": [[["conv2d_404", 0, 0, {}]]]}, {"class_name": "Activation", "config": {"name": "activation_404", "trainable": false, "dtype": "float32", "activation": "relu"}, "name": "activation_404", "inbound_nodes": [[["batch_normalization_404", 0, 0, {}]]]}, {"class_name": "Conv2D", "config": {"name": "conv2d_402", "trainable": false, "dtype": "float32", "filters": 384, "kernel_size": [3, 3], "strides": [2, 2], "padding": "valid", "data_format": "channels_last", "dilation_rate": [1, 1], "groups": 1, "activation": "linear", "use_bias": false, "kernel_initializer": {"class_name": "GlorotUniform", "config": {"seed": null}}, "bias_initializer": {"class_name": "Zeros", "config": {}}, "kernel_regularizer": null, "bias_regularizer": null, "activity_regularizer": null, "kernel_constraint": null, "bias_constraint": null}, "name": "conv2d_402", "inbound_nodes": [[["mixed2", 0, 0, {}]]]}, {"class_name": "Conv2D", "config": {"name": "conv2d_405", "trainable": false, "dtype": "float32", "filters": 96, "kernel_size": [3, 3], "strides": [2, 2], "padding": "valid", "data_format": "channels_last", "dilation_rate": [1, 1], "groups": 1, "activation": "linear", "use_bias": false, "kernel_initializer": {"class_name": "GlorotUniform", "config": {"seed": null}}, "bias_initializer": {"class_name": "Zeros", "config": {}}, "kernel_regularizer": null, "bias_regularizer": null, "activity_regularizer": null, "kernel_constraint": null, "bias_constraint": null}, "name": "conv2d_405", "inbound_nodes": [[["activation_404", 0, 0, {}]]]}, {"class_name": "BatchNormalization", "config": {"name": "batch_normalization_402", "trainable": false, "dtype": "float32", "axis": [3], "momentum": 0.99, "epsilon": 0.001, "center": true, "scale": false, "beta_initializer": {"class_name": "Zeros", "config": {}}, "gamma_initializer": {"class_name": "Ones", "config": {}}, "moving_mean_initializer": {"class_name": "Zeros", "config": {}}, "moving_variance_initializer": {"class_name": "Ones", "config": {}}, "beta_regularizer": null, "gamma_regularizer": null, "beta_constraint": null, "gamma_constraint": null}, "name": "batch_normalization_402", "inbound_nodes": [[["conv2d_402", 0, 0, {}]]]}, {"class_name": "BatchNormalization", "config": {"name": "batch_normalization_405", "trainable": false, "dtype": "float32", "axis": [3], "momentum": 0.99, "epsilon": 0.001, "center": true, "scale": false, "beta_initializer": {"class_name": "Zeros", "config": {}}, "gamma_initializer": {"class_name": "Ones", "config": {}}, "moving_mean_initializer": {"class_name": "Zeros", "config": {}}, "moving_variance_initializer": {"class_name": "Ones", "config": {}}, "beta_regularizer": null, "gamma_regularizer": null, "beta_constraint": null, "gamma_constraint": null}, "name": "batch_normalization_405", "inbound_nodes": [[["conv2d_405", 0, 0, {}]]]}, {"class_name": "Activation", "config": {"name": "activation_402", "trainable": false, "dtype": "float32", "activation": "relu"}, "name": "activation_402", "inbound_nodes": [[["batch_normalization_402", 0, 0, {}]]]}, {"class_name": "Activation", "config": {"name": "activation_405", "trainable": false, "dtype": "float32", "activation": "relu"}, "name": "activation_405", "inbound_nodes": [[["batch_normalization_405", 0, 0, {}]]]}, {"class_name": "MaxPooling2D", "config": {"name": "max_pooling2d_18", "trainable": false, "dtype": "float32", "pool_size": [3, 3], "padding": "valid", "strides": [2, 2], "data_format": "channels_last"}, "name": "max_pooling2d_18", "inbound_nodes": [[["mixed2", 0, 0, {}]]]}, {"class_name": "Concatenate", "config": {"name": "mixed3", "trainable": false, "dtype": "float32", "axis": 3}, "name": "mixed3", "inbound_nodes": [[["activation_402", 0, 0, {}], ["activation_405", 0, 0, {}], ["max_pooling2d_18", 0, 0, {}]]]}, {"class_name": "Conv2D", "config": {"name": "conv2d_410", "trainable": false, "dtype": "float32", "filters": 128, "kernel_size": [1, 1], "strides": [1, 1], "padding": "same", "data_format": "channels_last", "dilation_rate": [1, 1], "groups": 1, "activation": "linear", "use_bias": false, "kernel_initializer": {"class_name": "GlorotUniform", "config": {"seed": null}}, "bias_initializer": {"class_name": "Zeros", "config": {}}, "kernel_regularizer": null, "bias_regularizer": null, "activity_regularizer": null, "kernel_constraint": null, "bias_constraint": null}, "name": "conv2d_410", "inbound_nodes": [[["mixed3", 0, 0, {}]]]}, {"class_name": "BatchNormalization", "config": {"name": "batch_normalization_410", "trainable": false, "dtype": "float32", "axis": [3], "momentum": 0.99, "epsilon": 0.001, "center": true, "scale": false, "beta_initializer": {"class_name": "Zeros", "config": {}}, "gamma_initializer": {"class_name": "Ones", "config": {}}, "moving_mean_initializer": {"class_name": "Zeros", "config": {}}, "moving_variance_initializer": {"class_name": "Ones", "config": {}}, "beta_regularizer": null, "gamma_regularizer": null, "beta_constraint": null, "gamma_constraint": null}, "name": "batch_normalization_410", "inbound_nodes": [[["conv2d_410", 0, 0, {}]]]}, {"class_name": "Activation", "config": {"name": "activation_410", "trainable": false, "dtype": "float32", "activation": "relu"}, "name": "activation_410", "inbound_nodes": [[["batch_normalization_410", 0, 0, {}]]]}, {"class_name": "Conv2D", "config": {"name": "conv2d_411", "trainable": false, "dtype": "float32", "filters": 128, "kernel_size": [7, 1], "strides": [1, 1], "padding": "same", "data_format": "channels_last", "dilation_rate": [1, 1], "groups": 1, "activation": "linear", "use_bias": false, "kernel_initializer": {"class_name": "GlorotUniform", "config": {"seed": null}}, "bias_initializer": {"class_name": "Zeros", "config": {}}, "kernel_regularizer": null, "bias_regularizer": null, "activity_regularizer": null, "kernel_constraint": null, "bias_constraint": null}, "name": "conv2d_411", "inbound_nodes": [[["activation_410", 0, 0, {}]]]}, {"class_name": "BatchNormalization", "config": {"name": "batch_normalization_411", "trainable": false, "dtype": "float32", "axis": [3], "momentum": 0.99, "epsilon": 0.001, "center": true, "scale": false, "beta_initializer": {"class_name": "Zeros", "config": {}}, "gamma_initializer": {"class_name": "Ones", "config": {}}, "moving_mean_initializer": {"class_name": "Zeros", "config": {}}, "moving_variance_initializer": {"class_name": "Ones", "config": {}}, "beta_regularizer": null, "gamma_regularizer": null, "beta_constraint": null, "gamma_constraint": null}, "name": "batch_normalization_411", "inbound_nodes": [[["conv2d_411", 0, 0, {}]]]}, {"class_name": "Activation", "config": {"name": "activation_411", "trainable": false, "dtype": "float32", "activation": "relu"}, "name": "activation_411", "inbound_nodes": [[["batch_normalization_411", 0, 0, {}]]]}, {"class_name": "Conv2D", "config": {"name": "conv2d_407", "trainable": false, "dtype": "float32", "filters": 128, "kernel_size": [1, 1], "strides": [1, 1], "padding": "same", "data_format": "channels_last", "dilation_rate": [1, 1], "groups": 1, "activation": "linear", "use_bias": false, "kernel_initializer": {"class_name": "GlorotUniform", "config": {"seed": null}}, "bias_initializer": {"class_name": "Zeros", "config": {}}, "kernel_regularizer": null, "bias_regularizer": null, "activity_regularizer": null, "kernel_constraint": null, "bias_constraint": null}, "name": "conv2d_407", "inbound_nodes": [[["mixed3", 0, 0, {}]]]}, {"class_name": "Conv2D", "config": {"name": "conv2d_412", "trainable": false, "dtype": "float32", "filters": 128, "kernel_size": [1, 7], "strides": [1, 1], "padding": "same", "data_format": "channels_last", "dilation_rate": [1, 1], "groups": 1, "activation": "linear", "use_bias": false, "kernel_initializer": {"class_name": "GlorotUniform", "config": {"seed": null}}, "bias_initializer": {"class_name": "Zeros", "config": {}}, "kernel_regularizer": null, "bias_regularizer": null, "activity_regularizer": null, "kernel_constraint": null, "bias_constraint": null}, "name": "conv2d_412", "inbound_nodes": [[["activation_411", 0, 0, {}]]]}, {"class_name": "BatchNormalization", "config": {"name": "batch_normalization_407", "trainable": false, "dtype": "float32", "axis": [3], "momentum": 0.99, "epsilon": 0.001, "center": true, "scale": false, "beta_initializer": {"class_name": "Zeros", "config": {}}, "gamma_initializer": {"class_name": "Ones", "config": {}}, "moving_mean_initializer": {"class_name": "Zeros", "config": {}}, "moving_variance_initializer": {"class_name": "Ones", "config": {}}, "beta_regularizer": null, "gamma_regularizer": null, "beta_constraint": null, "gamma_constraint": null}, "name": "batch_normalization_407", "inbound_nodes": [[["conv2d_407", 0, 0, {}]]]}, {"class_name": "BatchNormalization", "config": {"name": "batch_normalization_412", "trainable": false, "dtype": "float32", "axis": [3], "momentum": 0.99, "epsilon": 0.001, "center": true, "scale": false, "beta_initializer": {"class_name": "Zeros", "config": {}}, "gamma_initializer": {"class_name": "Ones", "config": {}}, "moving_mean_initializer": {"class_name": "Zeros", "config": {}}, "moving_variance_initializer": {"class_name": "Ones", "config": {}}, "beta_regularizer": null, "gamma_regularizer": null, "beta_constraint": null, "gamma_constraint": null}, "name": "batch_normalization_412", "inbound_nodes": [[["conv2d_412", 0, 0, {}]]]}, {"class_name": "Activation", "config": {"name": "activation_407", "trainable": false, "dtype": "float32", "activation": "relu"}, "name": "activation_407", "inbound_nodes": [[["batch_normalization_407", 0, 0, {}]]]}, {"class_name": "Activation", "config": {"name": "activation_412", "trainable": false, "dtype": "float32", "activation": "relu"}, "name": "activation_412", "inbound_nodes": [[["batch_normalization_412", 0, 0, {}]]]}, {"class_name": "Conv2D", "config": {"name": "conv2d_408", "trainable": false, "dtype": "float32", "filters": 128, "kernel_size": [1, 7], "strides": [1, 1], "padding": "same", "data_format": "channels_last", "dilation_rate": [1, 1], "groups": 1, "activation": "linear", "use_bias": false, "kernel_initializer": {"class_name": "GlorotUniform", "config": {"seed": null}}, "bias_initializer": {"class_name": "Zeros", "config": {}}, "kernel_regularizer": null, "bias_regularizer": null, "activity_regularizer": null, "kernel_constraint": null, "bias_constraint": null}, "name": "conv2d_408", "inbound_nodes": [[["activation_407", 0, 0, {}]]]}, {"class_name": "Conv2D", "config": {"name": "conv2d_413", "trainable": false, "dtype": "float32", "filters": 128, "kernel_size": [7, 1], "strides": [1, 1], "padding": "same", "data_format": "channels_last", "dilation_rate": [1, 1], "groups": 1, "activation": "linear", "use_bias": false, "kernel_initializer": {"class_name": "GlorotUniform", "config": {"seed": null}}, "bias_initializer": {"class_name": "Zeros", "config": {}}, "kernel_regularizer": null, "bias_regularizer": null, "activity_regularizer": null, "kernel_constraint": null, "bias_constraint": null}, "name": "conv2d_413", "inbound_nodes": [[["activation_412", 0, 0, {}]]]}, {"class_name": "BatchNormalization", "config": {"name": "batch_normalization_408", "trainable": false, "dtype": "float32", "axis": [3], "momentum": 0.99, "epsilon": 0.001, "center": true, "scale": false, "beta_initializer": {"class_name": "Zeros", "config": {}}, "gamma_initializer": {"class_name": "Ones", "config": {}}, "moving_mean_initializer": {"class_name": "Zeros", "config": {}}, "moving_variance_initializer": {"class_name": "Ones", "config": {}}, "beta_regularizer": null, "gamma_regularizer": null, "beta_constraint": null, "gamma_constraint": null}, "name": "batch_normalization_408", "inbound_nodes": [[["conv2d_408", 0, 0, {}]]]}, {"class_name": "BatchNormalization", "config": {"name": "batch_normalization_413", "trainable": false, "dtype": "float32", "axis": [3], "momentum": 0.99, "epsilon": 0.001, "center": true, "scale": false, "beta_initializer": {"class_name": "Zeros", "config": {}}, "gamma_initializer": {"class_name": "Ones", "config": {}}, "moving_mean_initializer": {"class_name": "Zeros", "config": {}}, "moving_variance_initializer": {"class_name": "Ones", "config": {}}, "beta_regularizer": null, "gamma_regularizer": null, "beta_constraint": null, "gamma_constraint": null}, "name": "batch_normalization_413", "inbound_nodes": [[["conv2d_413", 0, 0, {}]]]}, {"class_name": "Activation", "config": {"name": "activation_408", "trainable": false, "dtype": "float32", "activation": "relu"}, "name": "activation_408", "inbound_nodes": [[["batch_normalization_408", 0, 0, {}]]]}, {"class_name": "Activation", "config": {"name": "activation_413", "trainable": false, "dtype": "float32", "activation": "relu"}, "name": "activation_413", "inbound_nodes": [[["batch_normalization_413", 0, 0, {}]]]}, {"class_name": "AveragePooling2D", "config": {"name": "average_pooling2d_39", "trainable": false, "dtype": "float32", "pool_size": [3, 3], "padding": "same", "strides": [1, 1], "data_format": "channels_last"}, "name": "average_pooling2d_39", "inbound_nodes": [[["mixed3", 0, 0, {}]]]}, {"class_name": "Conv2D", "config": {"name": "conv2d_406", "trainable": false, "dtype": "float32", "filters": 192, "kernel_size": [1, 1], "strides": [1, 1], "padding": "same", "data_format": "channels_last", "dilation_rate": [1, 1], "groups": 1, "activation": "linear", "use_bias": false, "kernel_initializer": {"class_name": "GlorotUniform", "config": {"seed": null}}, "bias_initializer": {"class_name": "Zeros", "config": {}}, "kernel_regularizer": null, "bias_regularizer": null, "activity_regularizer": null, "kernel_constraint": null, "bias_constraint": null}, "name": "conv2d_406", "inbound_nodes": [[["mixed3", 0, 0, {}]]]}, {"class_name": "Conv2D", "config": {"name": "conv2d_409", "trainable": false, "dtype": "float32", "filters": 192, "kernel_size": [7, 1], "strides": [1, 1], "padding": "same", "data_format": "channels_last", "dilation_rate": [1, 1], "groups": 1, "activation": "linear", "use_bias": false, "kernel_initializer": {"class_name": "GlorotUniform", "config": {"seed": null}}, "bias_initializer": {"class_name": "Zeros", "config": {}}, "kernel_regularizer": null, "bias_regularizer": null, "activity_regularizer": null, "kernel_constraint": null, "bias_constraint": null}, "name": "conv2d_409", "inbound_nodes": [[["activation_408", 0, 0, {}]]]}, {"class_name": "Conv2D", "config": {"name": "conv2d_414", "trainable": false, "dtype": "float32", "filters": 192, "kernel_size": [1, 7], "strides": [1, 1], "padding": "same", "data_format": "channels_last", "dilation_rate": [1, 1], "groups": 1, "activation": "linear", "use_bias": false, "kernel_initializer": {"class_name": "GlorotUniform", "config": {"seed": null}}, "bias_initializer": {"class_name": "Zeros", "config": {}}, "kernel_regularizer": null, "bias_regularizer": null, "activity_regularizer": null, "kernel_constraint": null, "bias_constraint": null}, "name": "conv2d_414", "inbound_nodes": [[["activation_413", 0, 0, {}]]]}, {"class_name": "Conv2D", "config": {"name": "conv2d_415", "trainable": false, "dtype": "float32", "filters": 192, "kernel_size": [1, 1], "strides": [1, 1], "padding": "same", "data_format": "channels_last", "dilation_rate": [1, 1], "groups": 1, "activation": "linear", "use_bias": false, "kernel_initializer": {"class_name": "GlorotUniform", "config": {"seed": null}}, "bias_initializer": {"class_name": "Zeros", "config": {}}, "kernel_regularizer": null, "bias_regularizer": null, "activity_regularizer": null, "kernel_constraint": null, "bias_constraint": null}, "name": "conv2d_415", "inbound_nodes": [[["average_pooling2d_39", 0, 0, {}]]]}, {"class_name": "BatchNormalization", "config": {"name": "batch_normalization_406", "trainable": false, "dtype": "float32", "axis": [3], "momentum": 0.99, "epsilon": 0.001, "center": true, "scale": false, "beta_initializer": {"class_name": "Zeros", "config": {}}, "gamma_initializer": {"class_name": "Ones", "config": {}}, "moving_mean_initializer": {"class_name": "Zeros", "config": {}}, "moving_variance_initializer": {"class_name": "Ones", "config": {}}, "beta_regularizer": null, "gamma_regularizer": null, "beta_constraint": null, "gamma_constraint": null}, "name": "batch_normalization_406", "inbound_nodes": [[["conv2d_406", 0, 0, {}]]]}, {"class_name": "BatchNormalization", "config": {"name": "batch_normalization_409", "trainable": false, "dtype": "float32", "axis": [3], "momentum": 0.99, "epsilon": 0.001, "center": true, "scale": false, "beta_initializer": {"class_name": "Zeros", "config": {}}, "gamma_initializer": {"class_name": "Ones", "config": {}}, "moving_mean_initializer": {"class_name": "Zeros", "config": {}}, "moving_variance_initializer": {"class_name": "Ones", "config": {}}, "beta_regularizer": null, "gamma_regularizer": null, "beta_constraint": null, "gamma_constraint": null}, "name": "batch_normalization_409", "inbound_nodes": [[["conv2d_409", 0, 0, {}]]]}, {"class_name": "BatchNormalization", "config": {"name": "batch_normalization_414", "trainable": false, "dtype": "float32", "axis": [3], "momentum": 0.99, "epsilon": 0.001, "center": true, "scale": false, "beta_initializer": {"class_name": "Zeros", "config": {}}, "gamma_initializer": {"class_name": "Ones", "config": {}}, "moving_mean_initializer": {"class_name": "Zeros", "config": {}}, "moving_variance_initializer": {"class_name": "Ones", "config": {}}, "beta_regularizer": null, "gamma_regularizer": null, "beta_constraint": null, "gamma_constraint": null}, "name": "batch_normalization_414", "inbound_nodes": [[["conv2d_414", 0, 0, {}]]]}, {"class_name": "BatchNormalization", "config": {"name": "batch_normalization_415", "trainable": false, "dtype": "float32", "axis": [3], "momentum": 0.99, "epsilon": 0.001, "center": true, "scale": false, "beta_initializer": {"class_name": "Zeros", "config": {}}, "gamma_initializer": {"class_name": "Ones", "config": {}}, "moving_mean_initializer": {"class_name": "Zeros", "config": {}}, "moving_variance_initializer": {"class_name": "Ones", "config": {}}, "beta_regularizer": null, "gamma_regularizer": null, "beta_constraint": null, "gamma_constraint": null}, "name": "batch_normalization_415", "inbound_nodes": [[["conv2d_415", 0, 0, {}]]]}, {"class_name": "Activation", "config": {"name": "activation_406", "trainable": false, "dtype": "float32", "activation": "relu"}, "name": "activation_406", "inbound_nodes": [[["batch_normalization_406", 0, 0, {}]]]}, {"class_name": "Activation", "config": {"name": "activation_409", "trainable": false, "dtype": "float32", "activation": "relu"}, "name": "activation_409", "inbound_nodes": [[["batch_normalization_409", 0, 0, {}]]]}, {"class_name": "Activation", "config": {"name": "activation_414", "trainable": false, "dtype": "float32", "activation": "relu"}, "name": "activation_414", "inbound_nodes": [[["batch_normalization_414", 0, 0, {}]]]}, {"class_name": "Activation", "config": {"name": "activation_415", "trainable": false, "dtype": "float32", "activation": "relu"}, "name": "activation_415", "inbound_nodes": [[["batch_normalization_415", 0, 0, {}]]]}, {"class_name": "Concatenate", "config": {"name": "mixed4", "trainable": false, "dtype": "float32", "axis": 3}, "name": "mixed4", "inbound_nodes": [[["activation_406", 0, 0, {}], ["activation_409", 0, 0, {}], ["activation_414", 0, 0, {}], ["activation_415", 0, 0, {}]]]}, {"class_name": "Conv2D", "config": {"name": "conv2d_420", "trainable": false, "dtype": "float32", "filters": 160, "kernel_size": [1, 1], "strides": [1, 1], "padding": "same", "data_format": "channels_last", "dilation_rate": [1, 1], "groups": 1, "activation": "linear", "use_bias": false, "kernel_initializer": {"class_name": "GlorotUniform", "config": {"seed": null}}, "bias_initializer": {"class_name": "Zeros", "config": {}}, "kernel_regularizer": null, "bias_regularizer": null, "activity_regularizer": null, "kernel_constraint": null, "bias_constraint": null}, "name": "conv2d_420", "inbound_nodes": [[["mixed4", 0, 0, {}]]]}, {"class_name": "BatchNormalization", "config": {"name": "batch_normalization_420", "trainable": false, "dtype": "float32", "axis": [3], "momentum": 0.99, "epsilon": 0.001, "center": true, "scale": false, "beta_initializer": {"class_name": "Zeros", "config": {}}, "gamma_initializer": {"class_name": "Ones", "config": {}}, "moving_mean_initializer": {"class_name": "Zeros", "config": {}}, "moving_variance_initializer": {"class_name": "Ones", "config": {}}, "beta_regularizer": null, "gamma_regularizer": null, "beta_constraint": null, "gamma_constraint": null}, "name": "batch_normalization_420", "inbound_nodes": [[["conv2d_420", 0, 0, {}]]]}, {"class_name": "Activation", "config": {"name": "activation_420", "trainable": false, "dtype": "float32", "activation": "relu"}, "name": "activation_420", "inbound_nodes": [[["batch_normalization_420", 0, 0, {}]]]}, {"class_name": "Conv2D", "config": {"name": "conv2d_421", "trainable": false, "dtype": "float32", "filters": 160, "kernel_size": [7, 1], "strides": [1, 1], "padding": "same", "data_format": "channels_last", "dilation_rate": [1, 1], "groups": 1, "activation": "linear", "use_bias": false, "kernel_initializer": {"class_name": "GlorotUniform", "config": {"seed": null}}, "bias_initializer": {"class_name": "Zeros", "config": {}}, "kernel_regularizer": null, "bias_regularizer": null, "activity_regularizer": null, "kernel_constraint": null, "bias_constraint": null}, "name": "conv2d_421", "inbound_nodes": [[["activation_420", 0, 0, {}]]]}, {"class_name": "BatchNormalization", "config": {"name": "batch_normalization_421", "trainable": false, "dtype": "float32", "axis": [3], "momentum": 0.99, "epsilon": 0.001, "center": true, "scale": false, "beta_initializer": {"class_name": "Zeros", "config": {}}, "gamma_initializer": {"class_name": "Ones", "config": {}}, "moving_mean_initializer": {"class_name": "Zeros", "config": {}}, "moving_variance_initializer": {"class_name": "Ones", "config": {}}, "beta_regularizer": null, "gamma_regularizer": null, "beta_constraint": null, "gamma_constraint": null}, "name": "batch_normalization_421", "inbound_nodes": [[["conv2d_421", 0, 0, {}]]]}, {"class_name": "Activation", "config": {"name": "activation_421", "trainable": false, "dtype": "float32", "activation": "relu"}, "name": "activation_421", "inbound_nodes": [[["batch_normalization_421", 0, 0, {}]]]}, {"class_name": "Conv2D", "config": {"name": "conv2d_417", "trainable": false, "dtype": "float32", "filters": 160, "kernel_size": [1, 1], "strides": [1, 1], "padding": "same", "data_format": "channels_last", "dilation_rate": [1, 1], "groups": 1, "activation": "linear", "use_bias": false, "kernel_initializer": {"class_name": "GlorotUniform", "config": {"seed": null}}, "bias_initializer": {"class_name": "Zeros", "config": {}}, "kernel_regularizer": null, "bias_regularizer": null, "activity_regularizer": null, "kernel_constraint": null, "bias_constraint": null}, "name": "conv2d_417", "inbound_nodes": [[["mixed4", 0, 0, {}]]]}, {"class_name": "Conv2D", "config": {"name": "conv2d_422", "trainable": false, "dtype": "float32", "filters": 160, "kernel_size": [1, 7], "strides": [1, 1], "padding": "same", "data_format": "channels_last", "dilation_rate": [1, 1], "groups": 1, "activation": "linear", "use_bias": false, "kernel_initializer": {"class_name": "GlorotUniform", "config": {"seed": null}}, "bias_initializer": {"class_name": "Zeros", "config": {}}, "kernel_regularizer": null, "bias_regularizer": null, "activity_regularizer": null, "kernel_constraint": null, "bias_constraint": null}, "name": "conv2d_422", "inbound_nodes": [[["activation_421", 0, 0, {}]]]}, {"class_name": "BatchNormalization", "config": {"name": "batch_normalization_417", "trainable": false, "dtype": "float32", "axis": [3], "momentum": 0.99, "epsilon": 0.001, "center": true, "scale": false, "beta_initializer": {"class_name": "Zeros", "config": {}}, "gamma_initializer": {"class_name": "Ones", "config": {}}, "moving_mean_initializer": {"class_name": "Zeros", "config": {}}, "moving_variance_initializer": {"class_name": "Ones", "config": {}}, "beta_regularizer": null, "gamma_regularizer": null, "beta_constraint": null, "gamma_constraint": null}, "name": "batch_normalization_417", "inbound_nodes": [[["conv2d_417", 0, 0, {}]]]}, {"class_name": "BatchNormalization", "config": {"name": "batch_normalization_422", "trainable": false, "dtype": "float32", "axis": [3], "momentum": 0.99, "epsilon": 0.001, "center": true, "scale": false, "beta_initializer": {"class_name": "Zeros", "config": {}}, "gamma_initializer": {"class_name": "Ones", "config": {}}, "moving_mean_initializer": {"class_name": "Zeros", "config": {}}, "moving_variance_initializer": {"class_name": "Ones", "config": {}}, "beta_regularizer": null, "gamma_regularizer": null, "beta_constraint": null, "gamma_constraint": null}, "name": "batch_normalization_422", "inbound_nodes": [[["conv2d_422", 0, 0, {}]]]}, {"class_name": "Activation", "config": {"name": "activation_417", "trainable": false, "dtype": "float32", "activation": "relu"}, "name": "activation_417", "inbound_nodes": [[["batch_normalization_417", 0, 0, {}]]]}, {"class_name": "Activation", "config": {"name": "activation_422", "trainable": false, "dtype": "float32", "activation": "relu"}, "name": "activation_422", "inbound_nodes": [[["batch_normalization_422", 0, 0, {}]]]}, {"class_name": "Conv2D", "config": {"name": "conv2d_418", "trainable": false, "dtype": "float32", "filters": 160, "kernel_size": [1, 7], "strides": [1, 1], "padding": "same", "data_format": "channels_last", "dilation_rate": [1, 1], "groups": 1, "activation": "linear", "use_bias": false, "kernel_initializer": {"class_name": "GlorotUniform", "config": {"seed": null}}, "bias_initializer": {"class_name": "Zeros", "config": {}}, "kernel_regularizer": null, "bias_regularizer": null, "activity_regularizer": null, "kernel_constraint": null, "bias_constraint": null}, "name": "conv2d_418", "inbound_nodes": [[["activation_417", 0, 0, {}]]]}, {"class_name": "Conv2D", "config": {"name": "conv2d_423", "trainable": false, "dtype": "float32", "filters": 160, "kernel_size": [7, 1], "strides": [1, 1], "padding": "same", "data_format": "channels_last", "dilation_rate": [1, 1], "groups": 1, "activation": "linear", "use_bias": false, "kernel_initializer": {"class_name": "GlorotUniform", "config": {"seed": null}}, "bias_initializer": {"class_name": "Zeros", "config": {}}, "kernel_regularizer": null, "bias_regularizer": null, "activity_regularizer": null, "kernel_constraint": null, "bias_constraint": null}, "name": "conv2d_423", "inbound_nodes": [[["activation_422", 0, 0, {}]]]}, {"class_name": "BatchNormalization", "config": {"name": "batch_normalization_418", "trainable": false, "dtype": "float32", "axis": [3], "momentum": 0.99, "epsilon": 0.001, "center": true, "scale": false, "beta_initializer": {"class_name": "Zeros", "config": {}}, "gamma_initializer": {"class_name": "Ones", "config": {}}, "moving_mean_initializer": {"class_name": "Zeros", "config": {}}, "moving_variance_initializer": {"class_name": "Ones", "config": {}}, "beta_regularizer": null, "gamma_regularizer": null, "beta_constraint": null, "gamma_constraint": null}, "name": "batch_normalization_418", "inbound_nodes": [[["conv2d_418", 0, 0, {}]]]}, {"class_name": "BatchNormalization", "config": {"name": "batch_normalization_423", "trainable": false, "dtype": "float32", "axis": [3], "momentum": 0.99, "epsilon": 0.001, "center": true, "scale": false, "beta_initializer": {"class_name": "Zeros", "config": {}}, "gamma_initializer": {"class_name": "Ones", "config": {}}, "moving_mean_initializer": {"class_name": "Zeros", "config": {}}, "moving_variance_initializer": {"class_name": "Ones", "config": {}}, "beta_regularizer": null, "gamma_regularizer": null, "beta_constraint": null, "gamma_constraint": null}, "name": "batch_normalization_423", "inbound_nodes": [[["conv2d_423", 0, 0, {}]]]}, {"class_name": "Activation", "config": {"name": "activation_418", "trainable": false, "dtype": "float32", "activation": "relu"}, "name": "activation_418", "inbound_nodes": [[["batch_normalization_418", 0, 0, {}]]]}, {"class_name": "Activation", "config": {"name": "activation_423", "trainable": false, "dtype": "float32", "activation": "relu"}, "name": "activation_423", "inbound_nodes": [[["batch_normalization_423", 0, 0, {}]]]}, {"class_name": "AveragePooling2D", "config": {"name": "average_pooling2d_40", "trainable": false, "dtype": "float32", "pool_size": [3, 3], "padding": "same", "strides": [1, 1], "data_format": "channels_last"}, "name": "average_pooling2d_40", "inbound_nodes": [[["mixed4", 0, 0, {}]]]}, {"class_name": "Conv2D", "config": {"name": "conv2d_416", "trainable": false, "dtype": "float32", "filters": 192, "kernel_size": [1, 1], "strides": [1, 1], "padding": "same", "data_format": "channels_last", "dilation_rate": [1, 1], "groups": 1, "activation": "linear", "use_bias": false, "kernel_initializer": {"class_name": "GlorotUniform", "config": {"seed": null}}, "bias_initializer": {"class_name": "Zeros", "config": {}}, "kernel_regularizer": null, "bias_regularizer": null, "activity_regularizer": null, "kernel_constraint": null, "bias_constraint": null}, "name": "conv2d_416", "inbound_nodes": [[["mixed4", 0, 0, {}]]]}, {"class_name": "Conv2D", "config": {"name": "conv2d_419", "trainable": false, "dtype": "float32", "filters": 192, "kernel_size": [7, 1], "strides": [1, 1], "padding": "same", "data_format": "channels_last", "dilation_rate": [1, 1], "groups": 1, "activation": "linear", "use_bias": false, "kernel_initializer": {"class_name": "GlorotUniform", "config": {"seed": null}}, "bias_initializer": {"class_name": "Zeros", "config": {}}, "kernel_regularizer": null, "bias_regularizer": null, "activity_regularizer": null, "kernel_constraint": null, "bias_constraint": null}, "name": "conv2d_419", "inbound_nodes": [[["activation_418", 0, 0, {}]]]}, {"class_name": "Conv2D", "config": {"name": "conv2d_424", "trainable": false, "dtype": "float32", "filters": 192, "kernel_size": [1, 7], "strides": [1, 1], "padding": "same", "data_format": "channels_last", "dilation_rate": [1, 1], "groups": 1, "activation": "linear", "use_bias": false, "kernel_initializer": {"class_name": "GlorotUniform", "config": {"seed": null}}, "bias_initializer": {"class_name": "Zeros", "config": {}}, "kernel_regularizer": null, "bias_regularizer": null, "activity_regularizer": null, "kernel_constraint": null, "bias_constraint": null}, "name": "conv2d_424", "inbound_nodes": [[["activation_423", 0, 0, {}]]]}, {"class_name": "Conv2D", "config": {"name": "conv2d_425", "trainable": false, "dtype": "float32", "filters": 192, "kernel_size": [1, 1], "strides": [1, 1], "padding": "same", "data_format": "channels_last", "dilation_rate": [1, 1], "groups": 1, "activation": "linear", "use_bias": false, "kernel_initializer": {"class_name": "GlorotUniform", "config": {"seed": null}}, "bias_initializer": {"class_name": "Zeros", "config": {}}, "kernel_regularizer": null, "bias_regularizer": null, "activity_regularizer": null, "kernel_constraint": null, "bias_constraint": null}, "name": "conv2d_425", "inbound_nodes": [[["average_pooling2d_40", 0, 0, {}]]]}, {"class_name": "BatchNormalization", "config": {"name": "batch_normalization_416", "trainable": false, "dtype": "float32", "axis": [3], "momentum": 0.99, "epsilon": 0.001, "center": true, "scale": false, "beta_initializer": {"class_name": "Zeros", "config": {}}, "gamma_initializer": {"class_name": "Ones", "config": {}}, "moving_mean_initializer": {"class_name": "Zeros", "config": {}}, "moving_variance_initializer": {"class_name": "Ones", "config": {}}, "beta_regularizer": null, "gamma_regularizer": null, "beta_constraint": null, "gamma_constraint": null}, "name": "batch_normalization_416", "inbound_nodes": [[["conv2d_416", 0, 0, {}]]]}, {"class_name": "BatchNormalization", "config": {"name": "batch_normalization_419", "trainable": false, "dtype": "float32", "axis": [3], "momentum": 0.99, "epsilon": 0.001, "center": true, "scale": false, "beta_initializer": {"class_name": "Zeros", "config": {}}, "gamma_initializer": {"class_name": "Ones", "config": {}}, "moving_mean_initializer": {"class_name": "Zeros", "config": {}}, "moving_variance_initializer": {"class_name": "Ones", "config": {}}, "beta_regularizer": null, "gamma_regularizer": null, "beta_constraint": null, "gamma_constraint": null}, "name": "batch_normalization_419", "inbound_nodes": [[["conv2d_419", 0, 0, {}]]]}, {"class_name": "BatchNormalization", "config": {"name": "batch_normalization_424", "trainable": false, "dtype": "float32", "axis": [3], "momentum": 0.99, "epsilon": 0.001, "center": true, "scale": false, "beta_initializer": {"class_name": "Zeros", "config": {}}, "gamma_initializer": {"class_name": "Ones", "config": {}}, "moving_mean_initializer": {"class_name": "Zeros", "config": {}}, "moving_variance_initializer": {"class_name": "Ones", "config": {}}, "beta_regularizer": null, "gamma_regularizer": null, "beta_constraint": null, "gamma_constraint": null}, "name": "batch_normalization_424", "inbound_nodes": [[["conv2d_424", 0, 0, {}]]]}, {"class_name": "BatchNormalization", "config": {"name": "batch_normalization_425", "trainable": false, "dtype": "float32", "axis": [3], "momentum": 0.99, "epsilon": 0.001, "center": true, "scale": false, "beta_initializer": {"class_name": "Zeros", "config": {}}, "gamma_initializer": {"class_name": "Ones", "config": {}}, "moving_mean_initializer": {"class_name": "Zeros", "config": {}}, "moving_variance_initializer": {"class_name": "Ones", "config": {}}, "beta_regularizer": null, "gamma_regularizer": null, "beta_constraint": null, "gamma_constraint": null}, "name": "batch_normalization_425", "inbound_nodes": [[["conv2d_425", 0, 0, {}]]]}, {"class_name": "Activation", "config": {"name": "activation_416", "trainable": false, "dtype": "float32", "activation": "relu"}, "name": "activation_416", "inbound_nodes": [[["batch_normalization_416", 0, 0, {}]]]}, {"class_name": "Activation", "config": {"name": "activation_419", "trainable": false, "dtype": "float32", "activation": "relu"}, "name": "activation_419", "inbound_nodes": [[["batch_normalization_419", 0, 0, {}]]]}, {"class_name": "Activation", "config": {"name": "activation_424", "trainable": false, "dtype": "float32", "activation": "relu"}, "name": "activation_424", "inbound_nodes": [[["batch_normalization_424", 0, 0, {}]]]}, {"class_name": "Activation", "config": {"name": "activation_425", "trainable": false, "dtype": "float32", "activation": "relu"}, "name": "activation_425", "inbound_nodes": [[["batch_normalization_425", 0, 0, {}]]]}, {"class_name": "Concatenate", "config": {"name": "mixed5", "trainable": false, "dtype": "float32", "axis": 3}, "name": "mixed5", "inbound_nodes": [[["activation_416", 0, 0, {}], ["activation_419", 0, 0, {}], ["activation_424", 0, 0, {}], ["activation_425", 0, 0, {}]]]}, {"class_name": "Conv2D", "config": {"name": "conv2d_430", "trainable": false, "dtype": "float32", "filters": 160, "kernel_size": [1, 1], "strides": [1, 1], "padding": "same", "data_format": "channels_last", "dilation_rate": [1, 1], "groups": 1, "activation": "linear", "use_bias": false, "kernel_initializer": {"class_name": "GlorotUniform", "config": {"seed": null}}, "bias_initializer": {"class_name": "Zeros", "config": {}}, "kernel_regularizer": null, "bias_regularizer": null, "activity_regularizer": null, "kernel_constraint": null, "bias_constraint": null}, "name": "conv2d_430", "inbound_nodes": [[["mixed5", 0, 0, {}]]]}, {"class_name": "BatchNormalization", "config": {"name": "batch_normalization_430", "trainable": false, "dtype": "float32", "axis": [3], "momentum": 0.99, "epsilon": 0.001, "center": true, "scale": false, "beta_initializer": {"class_name": "Zeros", "config": {}}, "gamma_initializer": {"class_name": "Ones", "config": {}}, "moving_mean_initializer": {"class_name": "Zeros", "config": {}}, "moving_variance_initializer": {"class_name": "Ones", "config": {}}, "beta_regularizer": null, "gamma_regularizer": null, "beta_constraint": null, "gamma_constraint": null}, "name": "batch_normalization_430", "inbound_nodes": [[["conv2d_430", 0, 0, {}]]]}, {"class_name": "Activation", "config": {"name": "activation_430", "trainable": false, "dtype": "float32", "activation": "relu"}, "name": "activation_430", "inbound_nodes": [[["batch_normalization_430", 0, 0, {}]]]}, {"class_name": "Conv2D", "config": {"name": "conv2d_431", "trainable": false, "dtype": "float32", "filters": 160, "kernel_size": [7, 1], "strides": [1, 1], "padding": "same", "data_format": "channels_last", "dilation_rate": [1, 1], "groups": 1, "activation": "linear", "use_bias": false, "kernel_initializer": {"class_name": "GlorotUniform", "config": {"seed": null}}, "bias_initializer": {"class_name": "Zeros", "config": {}}, "kernel_regularizer": null, "bias_regularizer": null, "activity_regularizer": null, "kernel_constraint": null, "bias_constraint": null}, "name": "conv2d_431", "inbound_nodes": [[["activation_430", 0, 0, {}]]]}, {"class_name": "BatchNormalization", "config": {"name": "batch_normalization_431", "trainable": false, "dtype": "float32", "axis": [3], "momentum": 0.99, "epsilon": 0.001, "center": true, "scale": false, "beta_initializer": {"class_name": "Zeros", "config": {}}, "gamma_initializer": {"class_name": "Ones", "config": {}}, "moving_mean_initializer": {"class_name": "Zeros", "config": {}}, "moving_variance_initializer": {"class_name": "Ones", "config": {}}, "beta_regularizer": null, "gamma_regularizer": null, "beta_constraint": null, "gamma_constraint": null}, "name": "batch_normalization_431", "inbound_nodes": [[["conv2d_431", 0, 0, {}]]]}, {"class_name": "Activation", "config": {"name": "activation_431", "trainable": false, "dtype": "float32", "activation": "relu"}, "name": "activation_431", "inbound_nodes": [[["batch_normalization_431", 0, 0, {}]]]}, {"class_name": "Conv2D", "config": {"name": "conv2d_427", "trainable": false, "dtype": "float32", "filters": 160, "kernel_size": [1, 1], "strides": [1, 1], "padding": "same", "data_format": "channels_last", "dilation_rate": [1, 1], "groups": 1, "activation": "linear", "use_bias": false, "kernel_initializer": {"class_name": "GlorotUniform", "config": {"seed": null}}, "bias_initializer": {"class_name": "Zeros", "config": {}}, "kernel_regularizer": null, "bias_regularizer": null, "activity_regularizer": null, "kernel_constraint": null, "bias_constraint": null}, "name": "conv2d_427", "inbound_nodes": [[["mixed5", 0, 0, {}]]]}, {"class_name": "Conv2D", "config": {"name": "conv2d_432", "trainable": false, "dtype": "float32", "filters": 160, "kernel_size": [1, 7], "strides": [1, 1], "padding": "same", "data_format": "channels_last", "dilation_rate": [1, 1], "groups": 1, "activation": "linear", "use_bias": false, "kernel_initializer": {"class_name": "GlorotUniform", "config": {"seed": null}}, "bias_initializer": {"class_name": "Zeros", "config": {}}, "kernel_regularizer": null, "bias_regularizer": null, "activity_regularizer": null, "kernel_constraint": null, "bias_constraint": null}, "name": "conv2d_432", "inbound_nodes": [[["activation_431", 0, 0, {}]]]}, {"class_name": "BatchNormalization", "config": {"name": "batch_normalization_427", "trainable": false, "dtype": "float32", "axis": [3], "momentum": 0.99, "epsilon": 0.001, "center": true, "scale": false, "beta_initializer": {"class_name": "Zeros", "config": {}}, "gamma_initializer": {"class_name": "Ones", "config": {}}, "moving_mean_initializer": {"class_name": "Zeros", "config": {}}, "moving_variance_initializer": {"class_name": "Ones", "config": {}}, "beta_regularizer": null, "gamma_regularizer": null, "beta_constraint": null, "gamma_constraint": null}, "name": "batch_normalization_427", "inbound_nodes": [[["conv2d_427", 0, 0, {}]]]}, {"class_name": "BatchNormalization", "config": {"name": "batch_normalization_432", "trainable": false, "dtype": "float32", "axis": [3], "momentum": 0.99, "epsilon": 0.001, "center": true, "scale": false, "beta_initializer": {"class_name": "Zeros", "config": {}}, "gamma_initializer": {"class_name": "Ones", "config": {}}, "moving_mean_initializer": {"class_name": "Zeros", "config": {}}, "moving_variance_initializer": {"class_name": "Ones", "config": {}}, "beta_regularizer": null, "gamma_regularizer": null, "beta_constraint": null, "gamma_constraint": null}, "name": "batch_normalization_432", "inbound_nodes": [[["conv2d_432", 0, 0, {}]]]}, {"class_name": "Activation", "config": {"name": "activation_427", "trainable": false, "dtype": "float32", "activation": "relu"}, "name": "activation_427", "inbound_nodes": [[["batch_normalization_427", 0, 0, {}]]]}, {"class_name": "Activation", "config": {"name": "activation_432", "trainable": false, "dtype": "float32", "activation": "relu"}, "name": "activation_432", "inbound_nodes": [[["batch_normalization_432", 0, 0, {}]]]}, {"class_name": "Conv2D", "config": {"name": "conv2d_428", "trainable": false, "dtype": "float32", "filters": 160, "kernel_size": [1, 7], "strides": [1, 1], "padding": "same", "data_format": "channels_last", "dilation_rate": [1, 1], "groups": 1, "activation": "linear", "use_bias": false, "kernel_initializer": {"class_name": "GlorotUniform", "config": {"seed": null}}, "bias_initializer": {"class_name": "Zeros", "config": {}}, "kernel_regularizer": null, "bias_regularizer": null, "activity_regularizer": null, "kernel_constraint": null, "bias_constraint": null}, "name": "conv2d_428", "inbound_nodes": [[["activation_427", 0, 0, {}]]]}, {"class_name": "Conv2D", "config": {"name": "conv2d_433", "trainable": false, "dtype": "float32", "filters": 160, "kernel_size": [7, 1], "strides": [1, 1], "padding": "same", "data_format": "channels_last", "dilation_rate": [1, 1], "groups": 1, "activation": "linear", "use_bias": false, "kernel_initializer": {"class_name": "GlorotUniform", "config": {"seed": null}}, "bias_initializer": {"class_name": "Zeros", "config": {}}, "kernel_regularizer": null, "bias_regularizer": null, "activity_regularizer": null, "kernel_constraint": null, "bias_constraint": null}, "name": "conv2d_433", "inbound_nodes": [[["activation_432", 0, 0, {}]]]}, {"class_name": "BatchNormalization", "config": {"name": "batch_normalization_428", "trainable": false, "dtype": "float32", "axis": [3], "momentum": 0.99, "epsilon": 0.001, "center": true, "scale": false, "beta_initializer": {"class_name": "Zeros", "config": {}}, "gamma_initializer": {"class_name": "Ones", "config": {}}, "moving_mean_initializer": {"class_name": "Zeros", "config": {}}, "moving_variance_initializer": {"class_name": "Ones", "config": {}}, "beta_regularizer": null, "gamma_regularizer": null, "beta_constraint": null, "gamma_constraint": null}, "name": "batch_normalization_428", "inbound_nodes": [[["conv2d_428", 0, 0, {}]]]}, {"class_name": "BatchNormalization", "config": {"name": "batch_normalization_433", "trainable": false, "dtype": "float32", "axis": [3], "momentum": 0.99, "epsilon": 0.001, "center": true, "scale": false, "beta_initializer": {"class_name": "Zeros", "config": {}}, "gamma_initializer": {"class_name": "Ones", "config": {}}, "moving_mean_initializer": {"class_name": "Zeros", "config": {}}, "moving_variance_initializer": {"class_name": "Ones", "config": {}}, "beta_regularizer": null, "gamma_regularizer": null, "beta_constraint": null, "gamma_constraint": null}, "name": "batch_normalization_433", "inbound_nodes": [[["conv2d_433", 0, 0, {}]]]}, {"class_name": "Activation", "config": {"name": "activation_428", "trainable": false, "dtype": "float32", "activation": "relu"}, "name": "activation_428", "inbound_nodes": [[["batch_normalization_428", 0, 0, {}]]]}, {"class_name": "Activation", "config": {"name": "activation_433", "trainable": false, "dtype": "float32", "activation": "relu"}, "name": "activation_433", "inbound_nodes": [[["batch_normalization_433", 0, 0, {}]]]}, {"class_name": "AveragePooling2D", "config": {"name": "average_pooling2d_41", "trainable": false, "dtype": "float32", "pool_size": [3, 3], "padding": "same", "strides": [1, 1], "data_format": "channels_last"}, "name": "average_pooling2d_41", "inbound_nodes": [[["mixed5", 0, 0, {}]]]}, {"class_name": "Conv2D", "config": {"name": "conv2d_426", "trainable": false, "dtype": "float32", "filters": 192, "kernel_size": [1, 1], "strides": [1, 1], "padding": "same", "data_format": "channels_last", "dilation_rate": [1, 1], "groups": 1, "activation": "linear", "use_bias": false, "kernel_initializer": {"class_name": "GlorotUniform", "config": {"seed": null}}, "bias_initializer": {"class_name": "Zeros", "config": {}}, "kernel_regularizer": null, "bias_regularizer": null, "activity_regularizer": null, "kernel_constraint": null, "bias_constraint": null}, "name": "conv2d_426", "inbound_nodes": [[["mixed5", 0, 0, {}]]]}, {"class_name": "Conv2D", "config": {"name": "conv2d_429", "trainable": false, "dtype": "float32", "filters": 192, "kernel_size": [7, 1], "strides": [1, 1], "padding": "same", "data_format": "channels_last", "dilation_rate": [1, 1], "groups": 1, "activation": "linear", "use_bias": false, "kernel_initializer": {"class_name": "GlorotUniform", "config": {"seed": null}}, "bias_initializer": {"class_name": "Zeros", "config": {}}, "kernel_regularizer": null, "bias_regularizer": null, "activity_regularizer": null, "kernel_constraint": null, "bias_constraint": null}, "name": "conv2d_429", "inbound_nodes": [[["activation_428", 0, 0, {}]]]}, {"class_name": "Conv2D", "config": {"name": "conv2d_434", "trainable": false, "dtype": "float32", "filters": 192, "kernel_size": [1, 7], "strides": [1, 1], "padding": "same", "data_format": "channels_last", "dilation_rate": [1, 1], "groups": 1, "activation": "linear", "use_bias": false, "kernel_initializer": {"class_name": "GlorotUniform", "config": {"seed": null}}, "bias_initializer": {"class_name": "Zeros", "config": {}}, "kernel_regularizer": null, "bias_regularizer": null, "activity_regularizer": null, "kernel_constraint": null, "bias_constraint": null}, "name": "conv2d_434", "inbound_nodes": [[["activation_433", 0, 0, {}]]]}, {"class_name": "Conv2D", "config": {"name": "conv2d_435", "trainable": false, "dtype": "float32", "filters": 192, "kernel_size": [1, 1], "strides": [1, 1], "padding": "same", "data_format": "channels_last", "dilation_rate": [1, 1], "groups": 1, "activation": "linear", "use_bias": false, "kernel_initializer": {"class_name": "GlorotUniform", "config": {"seed": null}}, "bias_initializer": {"class_name": "Zeros", "config": {}}, "kernel_regularizer": null, "bias_regularizer": null, "activity_regularizer": null, "kernel_constraint": null, "bias_constraint": null}, "name": "conv2d_435", "inbound_nodes": [[["average_pooling2d_41", 0, 0, {}]]]}, {"class_name": "BatchNormalization", "config": {"name": "batch_normalization_426", "trainable": false, "dtype": "float32", "axis": [3], "momentum": 0.99, "epsilon": 0.001, "center": true, "scale": false, "beta_initializer": {"class_name": "Zeros", "config": {}}, "gamma_initializer": {"class_name": "Ones", "config": {}}, "moving_mean_initializer": {"class_name": "Zeros", "config": {}}, "moving_variance_initializer": {"class_name": "Ones", "config": {}}, "beta_regularizer": null, "gamma_regularizer": null, "beta_constraint": null, "gamma_constraint": null}, "name": "batch_normalization_426", "inbound_nodes": [[["conv2d_426", 0, 0, {}]]]}, {"class_name": "BatchNormalization", "config": {"name": "batch_normalization_429", "trainable": false, "dtype": "float32", "axis": [3], "momentum": 0.99, "epsilon": 0.001, "center": true, "scale": false, "beta_initializer": {"class_name": "Zeros", "config": {}}, "gamma_initializer": {"class_name": "Ones", "config": {}}, "moving_mean_initializer": {"class_name": "Zeros", "config": {}}, "moving_variance_initializer": {"class_name": "Ones", "config": {}}, "beta_regularizer": null, "gamma_regularizer": null, "beta_constraint": null, "gamma_constraint": null}, "name": "batch_normalization_429", "inbound_nodes": [[["conv2d_429", 0, 0, {}]]]}, {"class_name": "BatchNormalization", "config": {"name": "batch_normalization_434", "trainable": false, "dtype": "float32", "axis": [3], "momentum": 0.99, "epsilon": 0.001, "center": true, "scale": false, "beta_initializer": {"class_name": "Zeros", "config": {}}, "gamma_initializer": {"class_name": "Ones", "config": {}}, "moving_mean_initializer": {"class_name": "Zeros", "config": {}}, "moving_variance_initializer": {"class_name": "Ones", "config": {}}, "beta_regularizer": null, "gamma_regularizer": null, "beta_constraint": null, "gamma_constraint": null}, "name": "batch_normalization_434", "inbound_nodes": [[["conv2d_434", 0, 0, {}]]]}, {"class_name": "BatchNormalization", "config": {"name": "batch_normalization_435", "trainable": false, "dtype": "float32", "axis": [3], "momentum": 0.99, "epsilon": 0.001, "center": true, "scale": false, "beta_initializer": {"class_name": "Zeros", "config": {}}, "gamma_initializer": {"class_name": "Ones", "config": {}}, "moving_mean_initializer": {"class_name": "Zeros", "config": {}}, "moving_variance_initializer": {"class_name": "Ones", "config": {}}, "beta_regularizer": null, "gamma_regularizer": null, "beta_constraint": null, "gamma_constraint": null}, "name": "batch_normalization_435", "inbound_nodes": [[["conv2d_435", 0, 0, {}]]]}, {"class_name": "Activation", "config": {"name": "activation_426", "trainable": false, "dtype": "float32", "activation": "relu"}, "name": "activation_426", "inbound_nodes": [[["batch_normalization_426", 0, 0, {}]]]}, {"class_name": "Activation", "config": {"name": "activation_429", "trainable": false, "dtype": "float32", "activation": "relu"}, "name": "activation_429", "inbound_nodes": [[["batch_normalization_429", 0, 0, {}]]]}, {"class_name": "Activation", "config": {"name": "activation_434", "trainable": false, "dtype": "float32", "activation": "relu"}, "name": "activation_434", "inbound_nodes": [[["batch_normalization_434", 0, 0, {}]]]}, {"class_name": "Activation", "config": {"name": "activation_435", "trainable": false, "dtype": "float32", "activation": "relu"}, "name": "activation_435", "inbound_nodes": [[["batch_normalization_435", 0, 0, {}]]]}, {"class_name": "Concatenate", "config": {"name": "mixed6", "trainable": false, "dtype": "float32", "axis": 3}, "name": "mixed6", "inbound_nodes": [[["activation_426", 0, 0, {}], ["activation_429", 0, 0, {}], ["activation_434", 0, 0, {}], ["activation_435", 0, 0, {}]]]}, {"class_name": "Conv2D", "config": {"name": "conv2d_440", "trainable": false, "dtype": "float32", "filters": 192, "kernel_size": [1, 1], "strides": [1, 1], "padding": "same", "data_format": "channels_last", "dilation_rate": [1, 1], "groups": 1, "activation": "linear", "use_bias": false, "kernel_initializer": {"class_name": "GlorotUniform", "config": {"seed": null}}, "bias_initializer": {"class_name": "Zeros", "config": {}}, "kernel_regularizer": null, "bias_regularizer": null, "activity_regularizer": null, "kernel_constraint": null, "bias_constraint": null}, "name": "conv2d_440", "inbound_nodes": [[["mixed6", 0, 0, {}]]]}, {"class_name": "BatchNormalization", "config": {"name": "batch_normalization_440", "trainable": false, "dtype": "float32", "axis": [3], "momentum": 0.99, "epsilon": 0.001, "center": true, "scale": false, "beta_initializer": {"class_name": "Zeros", "config": {}}, "gamma_initializer": {"class_name": "Ones", "config": {}}, "moving_mean_initializer": {"class_name": "Zeros", "config": {}}, "moving_variance_initializer": {"class_name": "Ones", "config": {}}, "beta_regularizer": null, "gamma_regularizer": null, "beta_constraint": null, "gamma_constraint": null}, "name": "batch_normalization_440", "inbound_nodes": [[["conv2d_440", 0, 0, {}]]]}, {"class_name": "Activation", "config": {"name": "activation_440", "trainable": false, "dtype": "float32", "activation": "relu"}, "name": "activation_440", "inbound_nodes": [[["batch_normalization_440", 0, 0, {}]]]}, {"class_name": "Conv2D", "config": {"name": "conv2d_441", "trainable": false, "dtype": "float32", "filters": 192, "kernel_size": [7, 1], "strides": [1, 1], "padding": "same", "data_format": "channels_last", "dilation_rate": [1, 1], "groups": 1, "activation": "linear", "use_bias": false, "kernel_initializer": {"class_name": "GlorotUniform", "config": {"seed": null}}, "bias_initializer": {"class_name": "Zeros", "config": {}}, "kernel_regularizer": null, "bias_regularizer": null, "activity_regularizer": null, "kernel_constraint": null, "bias_constraint": null}, "name": "conv2d_441", "inbound_nodes": [[["activation_440", 0, 0, {}]]]}, {"class_name": "BatchNormalization", "config": {"name": "batch_normalization_441", "trainable": false, "dtype": "float32", "axis": [3], "momentum": 0.99, "epsilon": 0.001, "center": true, "scale": false, "beta_initializer": {"class_name": "Zeros", "config": {}}, "gamma_initializer": {"class_name": "Ones", "config": {}}, "moving_mean_initializer": {"class_name": "Zeros", "config": {}}, "moving_variance_initializer": {"class_name": "Ones", "config": {}}, "beta_regularizer": null, "gamma_regularizer": null, "beta_constraint": null, "gamma_constraint": null}, "name": "batch_normalization_441", "inbound_nodes": [[["conv2d_441", 0, 0, {}]]]}, {"class_name": "Activation", "config": {"name": "activation_441", "trainable": false, "dtype": "float32", "activation": "relu"}, "name": "activation_441", "inbound_nodes": [[["batch_normalization_441", 0, 0, {}]]]}, {"class_name": "Conv2D", "config": {"name": "conv2d_437", "trainable": false, "dtype": "float32", "filters": 192, "kernel_size": [1, 1], "strides": [1, 1], "padding": "same", "data_format": "channels_last", "dilation_rate": [1, 1], "groups": 1, "activation": "linear", "use_bias": false, "kernel_initializer": {"class_name": "GlorotUniform", "config": {"seed": null}}, "bias_initializer": {"class_name": "Zeros", "config": {}}, "kernel_regularizer": null, "bias_regularizer": null, "activity_regularizer": null, "kernel_constraint": null, "bias_constraint": null}, "name": "conv2d_437", "inbound_nodes": [[["mixed6", 0, 0, {}]]]}, {"class_name": "Conv2D", "config": {"name": "conv2d_442", "trainable": false, "dtype": "float32", "filters": 192, "kernel_size": [1, 7], "strides": [1, 1], "padding": "same", "data_format": "channels_last", "dilation_rate": [1, 1], "groups": 1, "activation": "linear", "use_bias": false, "kernel_initializer": {"class_name": "GlorotUniform", "config": {"seed": null}}, "bias_initializer": {"class_name": "Zeros", "config": {}}, "kernel_regularizer": null, "bias_regularizer": null, "activity_regularizer": null, "kernel_constraint": null, "bias_constraint": null}, "name": "conv2d_442", "inbound_nodes": [[["activation_441", 0, 0, {}]]]}, {"class_name": "BatchNormalization", "config": {"name": "batch_normalization_437", "trainable": false, "dtype": "float32", "axis": [3], "momentum": 0.99, "epsilon": 0.001, "center": true, "scale": false, "beta_initializer": {"class_name": "Zeros", "config": {}}, "gamma_initializer": {"class_name": "Ones", "config": {}}, "moving_mean_initializer": {"class_name": "Zeros", "config": {}}, "moving_variance_initializer": {"class_name": "Ones", "config": {}}, "beta_regularizer": null, "gamma_regularizer": null, "beta_constraint": null, "gamma_constraint": null}, "name": "batch_normalization_437", "inbound_nodes": [[["conv2d_437", 0, 0, {}]]]}, {"class_name": "BatchNormalization", "config": {"name": "batch_normalization_442", "trainable": false, "dtype": "float32", "axis": [3], "momentum": 0.99, "epsilon": 0.001, "center": true, "scale": false, "beta_initializer": {"class_name": "Zeros", "config": {}}, "gamma_initializer": {"class_name": "Ones", "config": {}}, "moving_mean_initializer": {"class_name": "Zeros", "config": {}}, "moving_variance_initializer": {"class_name": "Ones", "config": {}}, "beta_regularizer": null, "gamma_regularizer": null, "beta_constraint": null, "gamma_constraint": null}, "name": "batch_normalization_442", "inbound_nodes": [[["conv2d_442", 0, 0, {}]]]}, {"class_name": "Activation", "config": {"name": "activation_437", "trainable": false, "dtype": "float32", "activation": "relu"}, "name": "activation_437", "inbound_nodes": [[["batch_normalization_437", 0, 0, {}]]]}, {"class_name": "Activation", "config": {"name": "activation_442", "trainable": false, "dtype": "float32", "activation": "relu"}, "name": "activation_442", "inbound_nodes": [[["batch_normalization_442", 0, 0, {}]]]}, {"class_name": "Conv2D", "config": {"name": "conv2d_438", "trainable": false, "dtype": "float32", "filters": 192, "kernel_size": [1, 7], "strides": [1, 1], "padding": "same", "data_format": "channels_last", "dilation_rate": [1, 1], "groups": 1, "activation": "linear", "use_bias": false, "kernel_initializer": {"class_name": "GlorotUniform", "config": {"seed": null}}, "bias_initializer": {"class_name": "Zeros", "config": {}}, "kernel_regularizer": null, "bias_regularizer": null, "activity_regularizer": null, "kernel_constraint": null, "bias_constraint": null}, "name": "conv2d_438", "inbound_nodes": [[["activation_437", 0, 0, {}]]]}, {"class_name": "Conv2D", "config": {"name": "conv2d_443", "trainable": false, "dtype": "float32", "filters": 192, "kernel_size": [7, 1], "strides": [1, 1], "padding": "same", "data_format": "channels_last", "dilation_rate": [1, 1], "groups": 1, "activation": "linear", "use_bias": false, "kernel_initializer": {"class_name": "GlorotUniform", "config": {"seed": null}}, "bias_initializer": {"class_name": "Zeros", "config": {}}, "kernel_regularizer": null, "bias_regularizer": null, "activity_regularizer": null, "kernel_constraint": null, "bias_constraint": null}, "name": "conv2d_443", "inbound_nodes": [[["activation_442", 0, 0, {}]]]}, {"class_name": "BatchNormalization", "config": {"name": "batch_normalization_438", "trainable": false, "dtype": "float32", "axis": [3], "momentum": 0.99, "epsilon": 0.001, "center": true, "scale": false, "beta_initializer": {"class_name": "Zeros", "config": {}}, "gamma_initializer": {"class_name": "Ones", "config": {}}, "moving_mean_initializer": {"class_name": "Zeros", "config": {}}, "moving_variance_initializer": {"class_name": "Ones", "config": {}}, "beta_regularizer": null, "gamma_regularizer": null, "beta_constraint": null, "gamma_constraint": null}, "name": "batch_normalization_438", "inbound_nodes": [[["conv2d_438", 0, 0, {}]]]}, {"class_name": "BatchNormalization", "config": {"name": "batch_normalization_443", "trainable": false, "dtype": "float32", "axis": [3], "momentum": 0.99, "epsilon": 0.001, "center": true, "scale": false, "beta_initializer": {"class_name": "Zeros", "config": {}}, "gamma_initializer": {"class_name": "Ones", "config": {}}, "moving_mean_initializer": {"class_name": "Zeros", "config": {}}, "moving_variance_initializer": {"class_name": "Ones", "config": {}}, "beta_regularizer": null, "gamma_regularizer": null, "beta_constraint": null, "gamma_constraint": null}, "name": "batch_normalization_443", "inbound_nodes": [[["conv2d_443", 0, 0, {}]]]}, {"class_name": "Activation", "config": {"name": "activation_438", "trainable": false, "dtype": "float32", "activation": "relu"}, "name": "activation_438", "inbound_nodes": [[["batch_normalization_438", 0, 0, {}]]]}, {"class_name": "Activation", "config": {"name": "activation_443", "trainable": false, "dtype": "float32", "activation": "relu"}, "name": "activation_443", "inbound_nodes": [[["batch_normalization_443", 0, 0, {}]]]}, {"class_name": "AveragePooling2D", "config": {"name": "average_pooling2d_42", "trainable": false, "dtype": "float32", "pool_size": [3, 3], "padding": "same", "strides": [1, 1], "data_format": "channels_last"}, "name": "average_pooling2d_42", "inbound_nodes": [[["mixed6", 0, 0, {}]]]}, {"class_name": "Conv2D", "config": {"name": "conv2d_436", "trainable": false, "dtype": "float32", "filters": 192, "kernel_size": [1, 1], "strides": [1, 1], "padding": "same", "data_format": "channels_last", "dilation_rate": [1, 1], "groups": 1, "activation": "linear", "use_bias": false, "kernel_initializer": {"class_name": "GlorotUniform", "config": {"seed": null}}, "bias_initializer": {"class_name": "Zeros", "config": {}}, "kernel_regularizer": null, "bias_regularizer": null, "activity_regularizer": null, "kernel_constraint": null, "bias_constraint": null}, "name": "conv2d_436", "inbound_nodes": [[["mixed6", 0, 0, {}]]]}, {"class_name": "Conv2D", "config": {"name": "conv2d_439", "trainable": false, "dtype": "float32", "filters": 192, "kernel_size": [7, 1], "strides": [1, 1], "padding": "same", "data_format": "channels_last", "dilation_rate": [1, 1], "groups": 1, "activation": "linear", "use_bias": false, "kernel_initializer": {"class_name": "GlorotUniform", "config": {"seed": null}}, "bias_initializer": {"class_name": "Zeros", "config": {}}, "kernel_regularizer": null, "bias_regularizer": null, "activity_regularizer": null, "kernel_constraint": null, "bias_constraint": null}, "name": "conv2d_439", "inbound_nodes": [[["activation_438", 0, 0, {}]]]}, {"class_name": "Conv2D", "config": {"name": "conv2d_444", "trainable": false, "dtype": "float32", "filters": 192, "kernel_size": [1, 7], "strides": [1, 1], "padding": "same", "data_format": "channels_last", "dilation_rate": [1, 1], "groups": 1, "activation": "linear", "use_bias": false, "kernel_initializer": {"class_name": "GlorotUniform", "config": {"seed": null}}, "bias_initializer": {"class_name": "Zeros", "config": {}}, "kernel_regularizer": null, "bias_regularizer": null, "activity_regularizer": null, "kernel_constraint": null, "bias_constraint": null}, "name": "conv2d_444", "inbound_nodes": [[["activation_443", 0, 0, {}]]]}, {"class_name": "Conv2D", "config": {"name": "conv2d_445", "trainable": false, "dtype": "float32", "filters": 192, "kernel_size": [1, 1], "strides": [1, 1], "padding": "same", "data_format": "channels_last", "dilation_rate": [1, 1], "groups": 1, "activation": "linear", "use_bias": false, "kernel_initializer": {"class_name": "GlorotUniform", "config": {"seed": null}}, "bias_initializer": {"class_name": "Zeros", "config": {}}, "kernel_regularizer": null, "bias_regularizer": null, "activity_regularizer": null, "kernel_constraint": null, "bias_constraint": null}, "name": "conv2d_445", "inbound_nodes": [[["average_pooling2d_42", 0, 0, {}]]]}, {"class_name": "BatchNormalization", "config": {"name": "batch_normalization_436", "trainable": false, "dtype": "float32", "axis": [3], "momentum": 0.99, "epsilon": 0.001, "center": true, "scale": false, "beta_initializer": {"class_name": "Zeros", "config": {}}, "gamma_initializer": {"class_name": "Ones", "config": {}}, "moving_mean_initializer": {"class_name": "Zeros", "config": {}}, "moving_variance_initializer": {"class_name": "Ones", "config": {}}, "beta_regularizer": null, "gamma_regularizer": null, "beta_constraint": null, "gamma_constraint": null}, "name": "batch_normalization_436", "inbound_nodes": [[["conv2d_436", 0, 0, {}]]]}, {"class_name": "BatchNormalization", "config": {"name": "batch_normalization_439", "trainable": false, "dtype": "float32", "axis": [3], "momentum": 0.99, "epsilon": 0.001, "center": true, "scale": false, "beta_initializer": {"class_name": "Zeros", "config": {}}, "gamma_initializer": {"class_name": "Ones", "config": {}}, "moving_mean_initializer": {"class_name": "Zeros", "config": {}}, "moving_variance_initializer": {"class_name": "Ones", "config": {}}, "beta_regularizer": null, "gamma_regularizer": null, "beta_constraint": null, "gamma_constraint": null}, "name": "batch_normalization_439", "inbound_nodes": [[["conv2d_439", 0, 0, {}]]]}, {"class_name": "BatchNormalization", "config": {"name": "batch_normalization_444", "trainable": false, "dtype": "float32", "axis": [3], "momentum": 0.99, "epsilon": 0.001, "center": true, "scale": false, "beta_initializer": {"class_name": "Zeros", "config": {}}, "gamma_initializer": {"class_name": "Ones", "config": {}}, "moving_mean_initializer": {"class_name": "Zeros", "config": {}}, "moving_variance_initializer": {"class_name": "Ones", "config": {}}, "beta_regularizer": null, "gamma_regularizer": null, "beta_constraint": null, "gamma_constraint": null}, "name": "batch_normalization_444", "inbound_nodes": [[["conv2d_444", 0, 0, {}]]]}, {"class_name": "BatchNormalization", "config": {"name": "batch_normalization_445", "trainable": false, "dtype": "float32", "axis": [3], "momentum": 0.99, "epsilon": 0.001, "center": true, "scale": false, "beta_initializer": {"class_name": "Zeros", "config": {}}, "gamma_initializer": {"class_name": "Ones", "config": {}}, "moving_mean_initializer": {"class_name": "Zeros", "config": {}}, "moving_variance_initializer": {"class_name": "Ones", "config": {}}, "beta_regularizer": null, "gamma_regularizer": null, "beta_constraint": null, "gamma_constraint": null}, "name": "batch_normalization_445", "inbound_nodes": [[["conv2d_445", 0, 0, {}]]]}, {"class_name": "Activation", "config": {"name": "activation_436", "trainable": false, "dtype": "float32", "activation": "relu"}, "name": "activation_436", "inbound_nodes": [[["batch_normalization_436", 0, 0, {}]]]}, {"class_name": "Activation", "config": {"name": "activation_439", "trainable": false, "dtype": "float32", "activation": "relu"}, "name": "activation_439", "inbound_nodes": [[["batch_normalization_439", 0, 0, {}]]]}, {"class_name": "Activation", "config": {"name": "activation_444", "trainable": false, "dtype": "float32", "activation": "relu"}, "name": "activation_444", "inbound_nodes": [[["batch_normalization_444", 0, 0, {}]]]}, {"class_name": "Activation", "config": {"name": "activation_445", "trainable": false, "dtype": "float32", "activation": "relu"}, "name": "activation_445", "inbound_nodes": [[["batch_normalization_445", 0, 0, {}]]]}, {"class_name": "Concatenate", "config": {"name": "mixed7", "trainable": false, "dtype": "float32", "axis": 3}, "name": "mixed7", "inbound_nodes": [[["activation_436", 0, 0, {}], ["activation_439", 0, 0, {}], ["activation_444", 0, 0, {}], ["activation_445", 0, 0, {}]]]}, {"class_name": "Conv2D", "config": {"name": "conv2d_448", "trainable": false, "dtype": "float32", "filters": 192, "kernel_size": [1, 1], "strides": [1, 1], "padding": "same", "data_format": "channels_last", "dilation_rate": [1, 1], "groups": 1, "activation": "linear", "use_bias": false, "kernel_initializer": {"class_name": "GlorotUniform", "config": {"seed": null}}, "bias_initializer": {"class_name": "Zeros", "config": {}}, "kernel_regularizer": null, "bias_regularizer": null, "activity_regularizer": null, "kernel_constraint": null, "bias_constraint": null}, "name": "conv2d_448", "inbound_nodes": [[["mixed7", 0, 0, {}]]]}, {"class_name": "BatchNormalization", "config": {"name": "batch_normalization_448", "trainable": false, "dtype": "float32", "axis": [3], "momentum": 0.99, "epsilon": 0.001, "center": true, "scale": false, "beta_initializer": {"class_name": "Zeros", "config": {}}, "gamma_initializer": {"class_name": "Ones", "config": {}}, "moving_mean_initializer": {"class_name": "Zeros", "config": {}}, "moving_variance_initializer": {"class_name": "Ones", "config": {}}, "beta_regularizer": null, "gamma_regularizer": null, "beta_constraint": null, "gamma_constraint": null}, "name": "batch_normalization_448", "inbound_nodes": [[["conv2d_448", 0, 0, {}]]]}, {"class_name": "Activation", "config": {"name": "activation_448", "trainable": false, "dtype": "float32", "activation": "relu"}, "name": "activation_448", "inbound_nodes": [[["batch_normalization_448", 0, 0, {}]]]}, {"class_name": "Conv2D", "config": {"name": "conv2d_449", "trainable": false, "dtype": "float32", "filters": 192, "kernel_size": [1, 7], "strides": [1, 1], "padding": "same", "data_format": "channels_last", "dilation_rate": [1, 1], "groups": 1, "activation": "linear", "use_bias": false, "kernel_initializer": {"class_name": "GlorotUniform", "config": {"seed": null}}, "bias_initializer": {"class_name": "Zeros", "config": {}}, "kernel_regularizer": null, "bias_regularizer": null, "activity_regularizer": null, "kernel_constraint": null, "bias_constraint": null}, "name": "conv2d_449", "inbound_nodes": [[["activation_448", 0, 0, {}]]]}, {"class_name": "BatchNormalization", "config": {"name": "batch_normalization_449", "trainable": false, "dtype": "float32", "axis": [3], "momentum": 0.99, "epsilon": 0.001, "center": true, "scale": false, "beta_initializer": {"class_name": "Zeros", "config": {}}, "gamma_initializer": {"class_name": "Ones", "config": {}}, "moving_mean_initializer": {"class_name": "Zeros", "config": {}}, "moving_variance_initializer": {"class_name": "Ones", "config": {}}, "beta_regularizer": null, "gamma_regularizer": null, "beta_constraint": null, "gamma_constraint": null}, "name": "batch_normalization_449", "inbound_nodes": [[["conv2d_449", 0, 0, {}]]]}, {"class_name": "Activation", "config": {"name": "activation_449", "trainable": false, "dtype": "float32", "activation": "relu"}, "name": "activation_449", "inbound_nodes": [[["batch_normalization_449", 0, 0, {}]]]}, {"class_name": "Conv2D", "config": {"name": "conv2d_446", "trainable": false, "dtype": "float32", "filters": 192, "kernel_size": [1, 1], "strides": [1, 1], "padding": "same", "data_format": "channels_last", "dilation_rate": [1, 1], "groups": 1, "activation": "linear", "use_bias": false, "kernel_initializer": {"class_name": "GlorotUniform", "config": {"seed": null}}, "bias_initializer": {"class_name": "Zeros", "config": {}}, "kernel_regularizer": null, "bias_regularizer": null, "activity_regularizer": null, "kernel_constraint": null, "bias_constraint": null}, "name": "conv2d_446", "inbound_nodes": [[["mixed7", 0, 0, {}]]]}, {"class_name": "Conv2D", "config": {"name": "conv2d_450", "trainable": false, "dtype": "float32", "filters": 192, "kernel_size": [7, 1], "strides": [1, 1], "padding": "same", "data_format": "channels_last", "dilation_rate": [1, 1], "groups": 1, "activation": "linear", "use_bias": false, "kernel_initializer": {"class_name": "GlorotUniform", "config": {"seed": null}}, "bias_initializer": {"class_name": "Zeros", "config": {}}, "kernel_regularizer": null, "bias_regularizer": null, "activity_regularizer": null, "kernel_constraint": null, "bias_constraint": null}, "name": "conv2d_450", "inbound_nodes": [[["activation_449", 0, 0, {}]]]}, {"class_name": "BatchNormalization", "config": {"name": "batch_normalization_446", "trainable": false, "dtype": "float32", "axis": [3], "momentum": 0.99, "epsilon": 0.001, "center": true, "scale": false, "beta_initializer": {"class_name": "Zeros", "config": {}}, "gamma_initializer": {"class_name": "Ones", "config": {}}, "moving_mean_initializer": {"class_name": "Zeros", "config": {}}, "moving_variance_initializer": {"class_name": "Ones", "config": {}}, "beta_regularizer": null, "gamma_regularizer": null, "beta_constraint": null, "gamma_constraint": null}, "name": "batch_normalization_446", "inbound_nodes": [[["conv2d_446", 0, 0, {}]]]}, {"class_name": "BatchNormalization", "config": {"name": "batch_normalization_450", "trainable": false, "dtype": "float32", "axis": [3], "momentum": 0.99, "epsilon": 0.001, "center": true, "scale": false, "beta_initializer": {"class_name": "Zeros", "config": {}}, "gamma_initializer": {"class_name": "Ones", "config": {}}, "moving_mean_initializer": {"class_name": "Zeros", "config": {}}, "moving_variance_initializer": {"class_name": "Ones", "config": {}}, "beta_regularizer": null, "gamma_regularizer": null, "beta_constraint": null, "gamma_constraint": null}, "name": "batch_normalization_450", "inbound_nodes": [[["conv2d_450", 0, 0, {}]]]}, {"class_name": "Activation", "config": {"name": "activation_446", "trainable": false, "dtype": "float32", "activation": "relu"}, "name": "activation_446", "inbound_nodes": [[["batch_normalization_446", 0, 0, {}]]]}, {"class_name": "Activation", "config": {"name": "activation_450", "trainable": false, "dtype": "float32", "activation": "relu"}, "name": "activation_450", "inbound_nodes": [[["batch_normalization_450", 0, 0, {}]]]}, {"class_name": "Conv2D", "config": {"name": "conv2d_447", "trainable": false, "dtype": "float32", "filters": 320, "kernel_size": [3, 3], "strides": [2, 2], "padding": "valid", "data_format": "channels_last", "dilation_rate": [1, 1], "groups": 1, "activation": "linear", "use_bias": false, "kernel_initializer": {"class_name": "GlorotUniform", "config": {"seed": null}}, "bias_initializer": {"class_name": "Zeros", "config": {}}, "kernel_regularizer": null, "bias_regularizer": null, "activity_regularizer": null, "kernel_constraint": null, "bias_constraint": null}, "name": "conv2d_447", "inbound_nodes": [[["activation_446", 0, 0, {}]]]}, {"class_name": "Conv2D", "config": {"name": "conv2d_451", "trainable": false, "dtype": "float32", "filters": 192, "kernel_size": [3, 3], "strides": [2, 2], "padding": "valid", "data_format": "channels_last", "dilation_rate": [1, 1], "groups": 1, "activation": "linear", "use_bias": false, "kernel_initializer": {"class_name": "GlorotUniform", "config": {"seed": null}}, "bias_initializer": {"class_name": "Zeros", "config": {}}, "kernel_regularizer": null, "bias_regularizer": null, "activity_regularizer": null, "kernel_constraint": null, "bias_constraint": null}, "name": "conv2d_451", "inbound_nodes": [[["activation_450", 0, 0, {}]]]}, {"class_name": "BatchNormalization", "config": {"name": "batch_normalization_447", "trainable": false, "dtype": "float32", "axis": [3], "momentum": 0.99, "epsilon": 0.001, "center": true, "scale": false, "beta_initializer": {"class_name": "Zeros", "config": {}}, "gamma_initializer": {"class_name": "Ones", "config": {}}, "moving_mean_initializer": {"class_name": "Zeros", "config": {}}, "moving_variance_initializer": {"class_name": "Ones", "config": {}}, "beta_regularizer": null, "gamma_regularizer": null, "beta_constraint": null, "gamma_constraint": null}, "name": "batch_normalization_447", "inbound_nodes": [[["conv2d_447", 0, 0, {}]]]}, {"class_name": "BatchNormalization", "config": {"name": "batch_normalization_451", "trainable": false, "dtype": "float32", "axis": [3], "momentum": 0.99, "epsilon": 0.001, "center": true, "scale": false, "beta_initializer": {"class_name": "Zeros", "config": {}}, "gamma_initializer": {"class_name": "Ones", "config": {}}, "moving_mean_initializer": {"class_name": "Zeros", "config": {}}, "moving_variance_initializer": {"class_name": "Ones", "config": {}}, "beta_regularizer": null, "gamma_regularizer": null, "beta_constraint": null, "gamma_constraint": null}, "name": "batch_normalization_451", "inbound_nodes": [[["conv2d_451", 0, 0, {}]]]}, {"class_name": "Activation", "config": {"name": "activation_447", "trainable": false, "dtype": "float32", "activation": "relu"}, "name": "activation_447", "inbound_nodes": [[["batch_normalization_447", 0, 0, {}]]]}, {"class_name": "Activation", "config": {"name": "activation_451", "trainable": false, "dtype": "float32", "activation": "relu"}, "name": "activation_451", "inbound_nodes": [[["batch_normalization_451", 0, 0, {}]]]}, {"class_name": "MaxPooling2D", "config": {"name": "max_pooling2d_19", "trainable": false, "dtype": "float32", "pool_size": [3, 3], "padding": "valid", "strides": [2, 2], "data_format": "channels_last"}, "name": "max_pooling2d_19", "inbound_nodes": [[["mixed7", 0, 0, {}]]]}, {"class_name": "Concatenate", "config": {"name": "mixed8", "trainable": false, "dtype": "float32", "axis": 3}, "name": "mixed8", "inbound_nodes": [[["activation_447", 0, 0, {}], ["activation_451", 0, 0, {}], ["max_pooling2d_19", 0, 0, {}]]]}, {"class_name": "Conv2D", "config": {"name": "conv2d_456", "trainable": false, "dtype": "float32", "filters": 448, "kernel_size": [1, 1], "strides": [1, 1], "padding": "same", "data_format": "channels_last", "dilation_rate": [1, 1], "groups": 1, "activation": "linear", "use_bias": false, "kernel_initializer": {"class_name": "GlorotUniform", "config": {"seed": null}}, "bias_initializer": {"class_name": "Zeros", "config": {}}, "kernel_regularizer": null, "bias_regularizer": null, "activity_regularizer": null, "kernel_constraint": null, "bias_constraint": null}, "name": "conv2d_456", "inbound_nodes": [[["mixed8", 0, 0, {}]]]}, {"class_name": "BatchNormalization", "config": {"name": "batch_normalization_456", "trainable": false, "dtype": "float32", "axis": [3], "momentum": 0.99, "epsilon": 0.001, "center": true, "scale": false, "beta_initializer": {"class_name": "Zeros", "config": {}}, "gamma_initializer": {"class_name": "Ones", "config": {}}, "moving_mean_initializer": {"class_name": "Zeros", "config": {}}, "moving_variance_initializer": {"class_name": "Ones", "config": {}}, "beta_regularizer": null, "gamma_regularizer": null, "beta_constraint": null, "gamma_constraint": null}, "name": "batch_normalization_456", "inbound_nodes": [[["conv2d_456", 0, 0, {}]]]}, {"class_name": "Activation", "config": {"name": "activation_456", "trainable": false, "dtype": "float32", "activation": "relu"}, "name": "activation_456", "inbound_nodes": [[["batch_normalization_456", 0, 0, {}]]]}, {"class_name": "Conv2D", "config": {"name": "conv2d_453", "trainable": false, "dtype": "float32", "filters": 384, "kernel_size": [1, 1], "strides": [1, 1], "padding": "same", "data_format": "channels_last", "dilation_rate": [1, 1], "groups": 1, "activation": "linear", "use_bias": false, "kernel_initializer": {"class_name": "GlorotUniform", "config": {"seed": null}}, "bias_initializer": {"class_name": "Zeros", "config": {}}, "kernel_regularizer": null, "bias_regularizer": null, "activity_regularizer": null, "kernel_constraint": null, "bias_constraint": null}, "name": "conv2d_453", "inbound_nodes": [[["mixed8", 0, 0, {}]]]}, {"class_name": "Conv2D", "config": {"name": "conv2d_457", "trainable": false, "dtype": "float32", "filters": 384, "kernel_size": [3, 3], "strides": [1, 1], "padding": "same", "data_format": "channels_last", "dilation_rate": [1, 1], "groups": 1, "activation": "linear", "use_bias": false, "kernel_initializer": {"class_name": "GlorotUniform", "config": {"seed": null}}, "bias_initializer": {"class_name": "Zeros", "config": {}}, "kernel_regularizer": null, "bias_regularizer": null, "activity_regularizer": null, "kernel_constraint": null, "bias_constraint": null}, "name": "conv2d_457", "inbound_nodes": [[["activation_456", 0, 0, {}]]]}, {"class_name": "BatchNormalization", "config": {"name": "batch_normalization_453", "trainable": false, "dtype": "float32", "axis": [3], "momentum": 0.99, "epsilon": 0.001, "center": true, "scale": false, "beta_initializer": {"class_name": "Zeros", "config": {}}, "gamma_initializer": {"class_name": "Ones", "config": {}}, "moving_mean_initializer": {"class_name": "Zeros", "config": {}}, "moving_variance_initializer": {"class_name": "Ones", "config": {}}, "beta_regularizer": null, "gamma_regularizer": null, "beta_constraint": null, "gamma_constraint": null}, "name": "batch_normalization_453", "inbound_nodes": [[["conv2d_453", 0, 0, {}]]]}, {"class_name": "BatchNormalization", "config": {"name": "batch_normalization_457", "trainable": false, "dtype": "float32", "axis": [3], "momentum": 0.99, "epsilon": 0.001, "center": true, "scale": false, "beta_initializer": {"class_name": "Zeros", "config": {}}, "gamma_initializer": {"class_name": "Ones", "config": {}}, "moving_mean_initializer": {"class_name": "Zeros", "config": {}}, "moving_variance_initializer": {"class_name": "Ones", "config": {}}, "beta_regularizer": null, "gamma_regularizer": null, "beta_constraint": null, "gamma_constraint": null}, "name": "batch_normalization_457", "inbound_nodes": [[["conv2d_457", 0, 0, {}]]]}, {"class_name": "Activation", "config": {"name": "activation_453", "trainable": false, "dtype": "float32", "activation": "relu"}, "name": "activation_453", "inbound_nodes": [[["batch_normalization_453", 0, 0, {}]]]}, {"class_name": "Activation", "config": {"name": "activation_457", "trainable": false, "dtype": "float32", "activation": "relu"}, "name": "activation_457", "inbound_nodes": [[["batch_normalization_457", 0, 0, {}]]]}, {"class_name": "Conv2D", "config": {"name": "conv2d_454", "trainable": false, "dtype": "float32", "filters": 384, "kernel_size": [1, 3], "strides": [1, 1], "padding": "same", "data_format": "channels_last", "dilation_rate": [1, 1], "groups": 1, "activation": "linear", "use_bias": false, "kernel_initializer": {"class_name": "GlorotUniform", "config": {"seed": null}}, "bias_initializer": {"class_name": "Zeros", "config": {}}, "kernel_regularizer": null, "bias_regularizer": null, "activity_regularizer": null, "kernel_constraint": null, "bias_constraint": null}, "name": "conv2d_454", "inbound_nodes": [[["activation_453", 0, 0, {}]]]}, {"class_name": "Conv2D", "config": {"name": "conv2d_455", "trainable": false, "dtype": "float32", "filters": 384, "kernel_size": [3, 1], "strides": [1, 1], "padding": "same", "data_format": "channels_last", "dilation_rate": [1, 1], "groups": 1, "activation": "linear", "use_bias": false, "kernel_initializer": {"class_name": "GlorotUniform", "config": {"seed": null}}, "bias_initializer": {"class_name": "Zeros", "config": {}}, "kernel_regularizer": null, "bias_regularizer": null, "activity_regularizer": null, "kernel_constraint": null, "bias_constraint": null}, "name": "conv2d_455", "inbound_nodes": [[["activation_453", 0, 0, {}]]]}, {"class_name": "Conv2D", "config": {"name": "conv2d_458", "trainable": false, "dtype": "float32", "filters": 384, "kernel_size": [1, 3], "strides": [1, 1], "padding": "same", "data_format": "channels_last", "dilation_rate": [1, 1], "groups": 1, "activation": "linear", "use_bias": false, "kernel_initializer": {"class_name": "GlorotUniform", "config": {"seed": null}}, "bias_initializer": {"class_name": "Zeros", "config": {}}, "kernel_regularizer": null, "bias_regularizer": null, "activity_regularizer": null, "kernel_constraint": null, "bias_constraint": null}, "name": "conv2d_458", "inbound_nodes": [[["activation_457", 0, 0, {}]]]}, {"class_name": "Conv2D", "config": {"name": "conv2d_459", "trainable": false, "dtype": "float32", "filters": 384, "kernel_size": [3, 1], "strides": [1, 1], "padding": "same", "data_format": "channels_last", "dilation_rate": [1, 1], "groups": 1, "activation": "linear", "use_bias": false, "kernel_initializer": {"class_name": "GlorotUniform", "config": {"seed": null}}, "bias_initializer": {"class_name": "Zeros", "config": {}}, "kernel_regularizer": null, "bias_regularizer": null, "activity_regularizer": null, "kernel_constraint": null, "bias_constraint": null}, "name": "conv2d_459", "inbound_nodes": [[["activation_457", 0, 0, {}]]]}, {"class_name": "AveragePooling2D", "config": {"name": "average_pooling2d_43", "trainable": false, "dtype": "float32", "pool_size": [3, 3], "padding": "same", "strides": [1, 1], "data_format": "channels_last"}, "name": "average_pooling2d_43", "inbound_nodes": [[["mixed8", 0, 0, {}]]]}, {"class_name": "Conv2D", "config": {"name": "conv2d_452", "trainable": false, "dtype": "float32", "filters": 320, "kernel_size": [1, 1], "strides": [1, 1], "padding": "same", "data_format": "channels_last", "dilation_rate": [1, 1], "groups": 1, "activation": "linear", "use_bias": false, "kernel_initializer": {"class_name": "GlorotUniform", "config": {"seed": null}}, "bias_initializer": {"class_name": "Zeros", "config": {}}, "kernel_regularizer": null, "bias_regularizer": null, "activity_regularizer": null, "kernel_constraint": null, "bias_constraint": null}, "name": "conv2d_452", "inbound_nodes": [[["mixed8", 0, 0, {}]]]}, {"class_name": "BatchNormalization", "config": {"name": "batch_normalization_454", "trainable": false, "dtype": "float32", "axis": [3], "momentum": 0.99, "epsilon": 0.001, "center": true, "scale": false, "beta_initializer": {"class_name": "Zeros", "config": {}}, "gamma_initializer": {"class_name": "Ones", "config": {}}, "moving_mean_initializer": {"class_name": "Zeros", "config": {}}, "moving_variance_initializer": {"class_name": "Ones", "config": {}}, "beta_regularizer": null, "gamma_regularizer": null, "beta_constraint": null, "gamma_constraint": null}, "name": "batch_normalization_454", "inbound_nodes": [[["conv2d_454", 0, 0, {}]]]}, {"class_name": "BatchNormalization", "config": {"name": "batch_normalization_455", "trainable": false, "dtype": "float32", "axis": [3], "momentum": 0.99, "epsilon": 0.001, "center": true, "scale": false, "beta_initializer": {"class_name": "Zeros", "config": {}}, "gamma_initializer": {"class_name": "Ones", "config": {}}, "moving_mean_initializer": {"class_name": "Zeros", "config": {}}, "moving_variance_initializer": {"class_name": "Ones", "config": {}}, "beta_regularizer": null, "gamma_regularizer": null, "beta_constraint": null, "gamma_constraint": null}, "name": "batch_normalization_455", "inbound_nodes": [[["conv2d_455", 0, 0, {}]]]}, {"class_name": "BatchNormalization", "config": {"name": "batch_normalization_458", "trainable": false, "dtype": "float32", "axis": [3], "momentum": 0.99, "epsilon": 0.001, "center": true, "scale": false, "beta_initializer": {"class_name": "Zeros", "config": {}}, "gamma_initializer": {"class_name": "Ones", "config": {}}, "moving_mean_initializer": {"class_name": "Zeros", "config": {}}, "moving_variance_initializer": {"class_name": "Ones", "config": {}}, "beta_regularizer": null, "gamma_regularizer": null, "beta_constraint": null, "gamma_constraint": null}, "name": "batch_normalization_458", "inbound_nodes": [[["conv2d_458", 0, 0, {}]]]}, {"class_name": "BatchNormalization", "config": {"name": "batch_normalization_459", "trainable": false, "dtype": "float32", "axis": [3], "momentum": 0.99, "epsilon": 0.001, "center": true, "scale": false, "beta_initializer": {"class_name": "Zeros", "config": {}}, "gamma_initializer": {"class_name": "Ones", "config": {}}, "moving_mean_initializer": {"class_name": "Zeros", "config": {}}, "moving_variance_initializer": {"class_name": "Ones", "config": {}}, "beta_regularizer": null, "gamma_regularizer": null, "beta_constraint": null, "gamma_constraint": null}, "name": "batch_normalization_459", "inbound_nodes": [[["conv2d_459", 0, 0, {}]]]}, {"class_name": "Conv2D", "config": {"name": "conv2d_460", "trainable": false, "dtype": "float32", "filters": 192, "kernel_size": [1, 1], "strides": [1, 1], "padding": "same", "data_format": "channels_last", "dilation_rate": [1, 1], "groups": 1, "activation": "linear", "use_bias": false, "kernel_initializer": {"class_name": "GlorotUniform", "config": {"seed": null}}, "bias_initializer": {"class_name": "Zeros", "config": {}}, "kernel_regularizer": null, "bias_regularizer": null, "activity_regularizer": null, "kernel_constraint": null, "bias_constraint": null}, "name": "conv2d_460", "inbound_nodes": [[["average_pooling2d_43", 0, 0, {}]]]}, {"class_name": "BatchNormalization", "config": {"name": "batch_normalization_452", "trainable": false, "dtype": "float32", "axis": [3], "momentum": 0.99, "epsilon": 0.001, "center": true, "scale": false, "beta_initializer": {"class_name": "Zeros", "config": {}}, "gamma_initializer": {"class_name": "Ones", "config": {}}, "moving_mean_initializer": {"class_name": "Zeros", "config": {}}, "moving_variance_initializer": {"class_name": "Ones", "config": {}}, "beta_regularizer": null, "gamma_regularizer": null, "beta_constraint": null, "gamma_constraint": null}, "name": "batch_normalization_452", "inbound_nodes": [[["conv2d_452", 0, 0, {}]]]}, {"class_name": "Activation", "config": {"name": "activation_454", "trainable": false, "dtype": "float32", "activation": "relu"}, "name": "activation_454", "inbound_nodes": [[["batch_normalization_454", 0, 0, {}]]]}, {"class_name": "Activation", "config": {"name": "activation_455", "trainable": false, "dtype": "float32", "activation": "relu"}, "name": "activation_455", "inbound_nodes": [[["batch_normalization_455", 0, 0, {}]]]}, {"class_name": "Activation", "config": {"name": "activation_458", "trainable": false, "dtype": "float32", "activation": "relu"}, "name": "activation_458", "inbound_nodes": [[["batch_normalization_458", 0, 0, {}]]]}, {"class_name": "Activation", "config": {"name": "activation_459", "trainable": false, "dtype": "float32", "activation": "relu"}, "name": "activation_459", "inbound_nodes": [[["batch_normalization_459", 0, 0, {}]]]}, {"class_name": "BatchNormalization", "config": {"name": "batch_normalization_460", "trainable": false, "dtype": "float32", "axis": [3], "momentum": 0.99, "epsilon": 0.001, "center": true, "scale": false, "beta_initializer": {"class_name": "Zeros", "config": {}}, "gamma_initializer": {"class_name": "Ones", "config": {}}, "moving_mean_initializer": {"class_name": "Zeros", "config": {}}, "moving_variance_initializer": {"class_name": "Ones", "config": {}}, "beta_regularizer": null, "gamma_regularizer": null, "beta_constraint": null, "gamma_constraint": null}, "name": "batch_normalization_460", "inbound_nodes": [[["conv2d_460", 0, 0, {}]]]}, {"class_name": "Activation", "config": {"name": "activation_452", "trainable": false, "dtype": "float32", "activation": "relu"}, "name": "activation_452", "inbound_nodes": [[["batch_normalization_452", 0, 0, {}]]]}, {"class_name": "Concatenate", "config": {"name": "mixed9_0", "trainable": false, "dtype": "float32", "axis": 3}, "name": "mixed9_0", "inbound_nodes": [[["activation_454", 0, 0, {}], ["activation_455", 0, 0, {}]]]}, {"class_name": "Concatenate", "config": {"name": "concatenate_8", "trainable": false, "dtype": "float32", "axis": 3}, "name": "concatenate_8", "inbound_nodes": [[["activation_458", 0, 0, {}], ["activation_459", 0, 0, {}]]]}, {"class_name": "Activation", "config": {"name": "activation_460", "trainable": false, "dtype": "float32", "activation": "relu"}, "name": "activation_460", "inbound_nodes": [[["batch_normalization_460", 0, 0, {}]]]}, {"class_name": "Concatenate", "config": {"name": "mixed9", "trainable": false, "dtype": "float32", "axis": 3}, "name": "mixed9", "inbound_nodes": [[["activation_452", 0, 0, {}], ["mixed9_0", 0, 0, {}], ["concatenate_8", 0, 0, {}], ["activation_460", 0, 0, {}]]]}, {"class_name": "Conv2D", "config": {"name": "conv2d_465", "trainable": false, "dtype": "float32", "filters": 448, "kernel_size": [1, 1], "strides": [1, 1], "padding": "same", "data_format": "channels_last", "dilation_rate": [1, 1], "groups": 1, "activation": "linear", "use_bias": false, "kernel_initializer": {"class_name": "GlorotUniform", "config": {"seed": null}}, "bias_initializer": {"class_name": "Zeros", "config": {}}, "kernel_regularizer": null, "bias_regularizer": null, "activity_regularizer": null, "kernel_constraint": null, "bias_constraint": null}, "name": "conv2d_465", "inbound_nodes": [[["mixed9", 0, 0, {}]]]}, {"class_name": "BatchNormalization", "config": {"name": "batch_normalization_465", "trainable": false, "dtype": "float32", "axis": [3], "momentum": 0.99, "epsilon": 0.001, "center": true, "scale": false, "beta_initializer": {"class_name": "Zeros", "config": {}}, "gamma_initializer": {"class_name": "Ones", "config": {}}, "moving_mean_initializer": {"class_name": "Zeros", "config": {}}, "moving_variance_initializer": {"class_name": "Ones", "config": {}}, "beta_regularizer": null, "gamma_regularizer": null, "beta_constraint": null, "gamma_constraint": null}, "name": "batch_normalization_465", "inbound_nodes": [[["conv2d_465", 0, 0, {}]]]}, {"class_name": "Activation", "config": {"name": "activation_465", "trainable": false, "dtype": "float32", "activation": "relu"}, "name": "activation_465", "inbound_nodes": [[["batch_normalization_465", 0, 0, {}]]]}, {"class_name": "Conv2D", "config": {"name": "conv2d_462", "trainable": false, "dtype": "float32", "filters": 384, "kernel_size": [1, 1], "strides": [1, 1], "padding": "same", "data_format": "channels_last", "dilation_rate": [1, 1], "groups": 1, "activation": "linear", "use_bias": false, "kernel_initializer": {"class_name": "GlorotUniform", "config": {"seed": null}}, "bias_initializer": {"class_name": "Zeros", "config": {}}, "kernel_regularizer": null, "bias_regularizer": null, "activity_regularizer": null, "kernel_constraint": null, "bias_constraint": null}, "name": "conv2d_462", "inbound_nodes": [[["mixed9", 0, 0, {}]]]}, {"class_name": "Conv2D", "config": {"name": "conv2d_466", "trainable": false, "dtype": "float32", "filters": 384, "kernel_size": [3, 3], "strides": [1, 1], "padding": "same", "data_format": "channels_last", "dilation_rate": [1, 1], "groups": 1, "activation": "linear", "use_bias": false, "kernel_initializer": {"class_name": "GlorotUniform", "config": {"seed": null}}, "bias_initializer": {"class_name": "Zeros", "config": {}}, "kernel_regularizer": null, "bias_regularizer": null, "activity_regularizer": null, "kernel_constraint": null, "bias_constraint": null}, "name": "conv2d_466", "inbound_nodes": [[["activation_465", 0, 0, {}]]]}, {"class_name": "BatchNormalization", "config": {"name": "batch_normalization_462", "trainable": false, "dtype": "float32", "axis": [3], "momentum": 0.99, "epsilon": 0.001, "center": true, "scale": false, "beta_initializer": {"class_name": "Zeros", "config": {}}, "gamma_initializer": {"class_name": "Ones", "config": {}}, "moving_mean_initializer": {"class_name": "Zeros", "config": {}}, "moving_variance_initializer": {"class_name": "Ones", "config": {}}, "beta_regularizer": null, "gamma_regularizer": null, "beta_constraint": null, "gamma_constraint": null}, "name": "batch_normalization_462", "inbound_nodes": [[["conv2d_462", 0, 0, {}]]]}, {"class_name": "BatchNormalization", "config": {"name": "batch_normalization_466", "trainable": false, "dtype": "float32", "axis": [3], "momentum": 0.99, "epsilon": 0.001, "center": true, "scale": false, "beta_initializer": {"class_name": "Zeros", "config": {}}, "gamma_initializer": {"class_name": "Ones", "config": {}}, "moving_mean_initializer": {"class_name": "Zeros", "config": {}}, "moving_variance_initializer": {"class_name": "Ones", "config": {}}, "beta_regularizer": null, "gamma_regularizer": null, "beta_constraint": null, "gamma_constraint": null}, "name": "batch_normalization_466", "inbound_nodes": [[["conv2d_466", 0, 0, {}]]]}, {"class_name": "Activation", "config": {"name": "activation_462", "trainable": false, "dtype": "float32", "activation": "relu"}, "name": "activation_462", "inbound_nodes": [[["batch_normalization_462", 0, 0, {}]]]}, {"class_name": "Activation", "config": {"name": "activation_466", "trainable": false, "dtype": "float32", "activation": "relu"}, "name": "activation_466", "inbound_nodes": [[["batch_normalization_466", 0, 0, {}]]]}, {"class_name": "Conv2D", "config": {"name": "conv2d_463", "trainable": false, "dtype": "float32", "filters": 384, "kernel_size": [1, 3], "strides": [1, 1], "padding": "same", "data_format": "channels_last", "dilation_rate": [1, 1], "groups": 1, "activation": "linear", "use_bias": false, "kernel_initializer": {"class_name": "GlorotUniform", "config": {"seed": null}}, "bias_initializer": {"class_name": "Zeros", "config": {}}, "kernel_regularizer": null, "bias_regularizer": null, "activity_regularizer": null, "kernel_constraint": null, "bias_constraint": null}, "name": "conv2d_463", "inbound_nodes": [[["activation_462", 0, 0, {}]]]}, {"class_name": "Conv2D", "config": {"name": "conv2d_464", "trainable": false, "dtype": "float32", "filters": 384, "kernel_size": [3, 1], "strides": [1, 1], "padding": "same", "data_format": "channels_last", "dilation_rate": [1, 1], "groups": 1, "activation": "linear", "use_bias": false, "kernel_initializer": {"class_name": "GlorotUniform", "config": {"seed": null}}, "bias_initializer": {"class_name": "Zeros", "config": {}}, "kernel_regularizer": null, "bias_regularizer": null, "activity_regularizer": null, "kernel_constraint": null, "bias_constraint": null}, "name": "conv2d_464", "inbound_nodes": [[["activation_462", 0, 0, {}]]]}, {"class_name": "Conv2D", "config": {"name": "conv2d_467", "trainable": false, "dtype": "float32", "filters": 384, "kernel_size": [1, 3], "strides": [1, 1], "padding": "same", "data_format": "channels_last", "dilation_rate": [1, 1], "groups": 1, "activation": "linear", "use_bias": false, "kernel_initializer": {"class_name": "GlorotUniform", "config": {"seed": null}}, "bias_initializer": {"class_name": "Zeros", "config": {}}, "kernel_regularizer": null, "bias_regularizer": null, "activity_regularizer": null, "kernel_constraint": null, "bias_constraint": null}, "name": "conv2d_467", "inbound_nodes": [[["activation_466", 0, 0, {}]]]}, {"class_name": "Conv2D", "config": {"name": "conv2d_468", "trainable": false, "dtype": "float32", "filters": 384, "kernel_size": [3, 1], "strides": [1, 1], "padding": "same", "data_format": "channels_last", "dilation_rate": [1, 1], "groups": 1, "activation": "linear", "use_bias": false, "kernel_initializer": {"class_name": "GlorotUniform", "config": {"seed": null}}, "bias_initializer": {"class_name": "Zeros", "config": {}}, "kernel_regularizer": null, "bias_regularizer": null, "activity_regularizer": null, "kernel_constraint": null, "bias_constraint": null}, "name": "conv2d_468", "inbound_nodes": [[["activation_466", 0, 0, {}]]]}, {"class_name": "AveragePooling2D", "config": {"name": "average_pooling2d_44", "trainable": false, "dtype": "float32", "pool_size": [3, 3], "padding": "same", "strides": [1, 1], "data_format": "channels_last"}, "name": "average_pooling2d_44", "inbound_nodes": [[["mixed9", 0, 0, {}]]]}, {"class_name": "Conv2D", "config": {"name": "conv2d_461", "trainable": false, "dtype": "float32", "filters": 320, "kernel_size": [1, 1], "strides": [1, 1], "padding": "same", "data_format": "channels_last", "dilation_rate": [1, 1], "groups": 1, "activation": "linear", "use_bias": false, "kernel_initializer": {"class_name": "GlorotUniform", "config": {"seed": null}}, "bias_initializer": {"class_name": "Zeros", "config": {}}, "kernel_regularizer": null, "bias_regularizer": null, "activity_regularizer": null, "kernel_constraint": null, "bias_constraint": null}, "name": "conv2d_461", "inbound_nodes": [[["mixed9", 0, 0, {}]]]}, {"class_name": "BatchNormalization", "config": {"name": "batch_normalization_463", "trainable": false, "dtype": "float32", "axis": [3], "momentum": 0.99, "epsilon": 0.001, "center": true, "scale": false, "beta_initializer": {"class_name": "Zeros", "config": {}}, "gamma_initializer": {"class_name": "Ones", "config": {}}, "moving_mean_initializer": {"class_name": "Zeros", "config": {}}, "moving_variance_initializer": {"class_name": "Ones", "config": {}}, "beta_regularizer": null, "gamma_regularizer": null, "beta_constraint": null, "gamma_constraint": null}, "name": "batch_normalization_463", "inbound_nodes": [[["conv2d_463", 0, 0, {}]]]}, {"class_name": "BatchNormalization", "config": {"name": "batch_normalization_464", "trainable": false, "dtype": "float32", "axis": [3], "momentum": 0.99, "epsilon": 0.001, "center": true, "scale": false, "beta_initializer": {"class_name": "Zeros", "config": {}}, "gamma_initializer": {"class_name": "Ones", "config": {}}, "moving_mean_initializer": {"class_name": "Zeros", "config": {}}, "moving_variance_initializer": {"class_name": "Ones", "config": {}}, "beta_regularizer": null, "gamma_regularizer": null, "beta_constraint": null, "gamma_constraint": null}, "name": "batch_normalization_464", "inbound_nodes": [[["conv2d_464", 0, 0, {}]]]}, {"class_name": "BatchNormalization", "config": {"name": "batch_normalization_467", "trainable": false, "dtype": "float32", "axis": [3], "momentum": 0.99, "epsilon": 0.001, "center": true, "scale": false, "beta_initializer": {"class_name": "Zeros", "config": {}}, "gamma_initializer": {"class_name": "Ones", "config": {}}, "moving_mean_initializer": {"class_name": "Zeros", "config": {}}, "moving_variance_initializer": {"class_name": "Ones", "config": {}}, "beta_regularizer": null, "gamma_regularizer": null, "beta_constraint": null, "gamma_constraint": null}, "name": "batch_normalization_467", "inbound_nodes": [[["conv2d_467", 0, 0, {}]]]}, {"class_name": "BatchNormalization", "config": {"name": "batch_normalization_468", "trainable": false, "dtype": "float32", "axis": [3], "momentum": 0.99, "epsilon": 0.001, "center": true, "scale": false, "beta_initializer": {"class_name": "Zeros", "config": {}}, "gamma_initializer": {"class_name": "Ones", "config": {}}, "moving_mean_initializer": {"class_name": "Zeros", "config": {}}, "moving_variance_initializer": {"class_name": "Ones", "config": {}}, "beta_regularizer": null, "gamma_regularizer": null, "beta_constraint": null, "gamma_constraint": null}, "name": "batch_normalization_468", "inbound_nodes": [[["conv2d_468", 0, 0, {}]]]}, {"class_name": "Conv2D", "config": {"name": "conv2d_469", "trainable": false, "dtype": "float32", "filters": 192, "kernel_size": [1, 1], "strides": [1, 1], "padding": "same", "data_format": "channels_last", "dilation_rate": [1, 1], "groups": 1, "activation": "linear", "use_bias": false, "kernel_initializer": {"class_name": "GlorotUniform", "config": {"seed": null}}, "bias_initializer": {"class_name": "Zeros", "config": {}}, "kernel_regularizer": null, "bias_regularizer": null, "activity_regularizer": null, "kernel_constraint": null, "bias_constraint": null}, "name": "conv2d_469", "inbound_nodes": [[["average_pooling2d_44", 0, 0, {}]]]}, {"class_name": "BatchNormalization", "config": {"name": "batch_normalization_461", "trainable": false, "dtype": "float32", "axis": [3], "momentum": 0.99, "epsilon": 0.001, "center": true, "scale": false, "beta_initializer": {"class_name": "Zeros", "config": {}}, "gamma_initializer": {"class_name": "Ones", "config": {}}, "moving_mean_initializer": {"class_name": "Zeros", "config": {}}, "moving_variance_initializer": {"class_name": "Ones", "config": {}}, "beta_regularizer": null, "gamma_regularizer": null, "beta_constraint": null, "gamma_constraint": null}, "name": "batch_normalization_461", "inbound_nodes": [[["conv2d_461", 0, 0, {}]]]}, {"class_name": "Activation", "config": {"name": "activation_463", "trainable": false, "dtype": "float32", "activation": "relu"}, "name": "activation_463", "inbound_nodes": [[["batch_normalization_463", 0, 0, {}]]]}, {"class_name": "Activation", "config": {"name": "activation_464", "trainable": false, "dtype": "float32", "activation": "relu"}, "name": "activation_464", "inbound_nodes": [[["batch_normalization_464", 0, 0, {}]]]}, {"class_name": "Activation", "config": {"name": "activation_467", "trainable": false, "dtype": "float32", "activation": "relu"}, "name": "activation_467", "inbound_nodes": [[["batch_normalization_467", 0, 0, {}]]]}, {"class_name": "Activation", "config": {"name": "activation_468", "trainable": false, "dtype": "float32", "activation": "relu"}, "name": "activation_468", "inbound_nodes": [[["batch_normalization_468", 0, 0, {}]]]}, {"class_name": "BatchNormalization", "config": {"name": "batch_normalization_469", "trainable": false, "dtype": "float32", "axis": [3], "momentum": 0.99, "epsilon": 0.001, "center": true, "scale": false, "beta_initializer": {"class_name": "Zeros", "config": {}}, "gamma_initializer": {"class_name": "Ones", "config": {}}, "moving_mean_initializer": {"class_name": "Zeros", "config": {}}, "moving_variance_initializer": {"class_name": "Ones", "config": {}}, "beta_regularizer": null, "gamma_regularizer": null, "beta_constraint": null, "gamma_constraint": null}, "name": "batch_normalization_469", "inbound_nodes": [[["conv2d_469", 0, 0, {}]]]}, {"class_name": "Activation", "config": {"name": "activation_461", "trainable": false, "dtype": "float32", "activation": "relu"}, "name": "activation_461", "inbound_nodes": [[["batch_normalization_461", 0, 0, {}]]]}, {"class_name": "Concatenate", "config": {"name": "mixed9_1", "trainable": false, "dtype": "float32", "axis": 3}, "name": "mixed9_1", "inbound_nodes": [[["activation_463", 0, 0, {}], ["activation_464", 0, 0, {}]]]}, {"class_name": "Concatenate", "config": {"name": "concatenate_9", "trainable": false, "dtype": "float32", "axis": 3}, "name": "concatenate_9", "inbound_nodes": [[["activation_467", 0, 0, {}], ["activation_468", 0, 0, {}]]]}, {"class_name": "Activation", "config": {"name": "activation_469", "trainable": false, "dtype": "float32", "activation": "relu"}, "name": "activation_469", "inbound_nodes": [[["batch_normalization_469", 0, 0, {}]]]}, {"class_name": "Concatenate", "config": {"name": "mixed10", "trainable": false, "dtype": "float32", "axis": 3}, "name": "mixed10", "inbound_nodes": [[["activation_461", 0, 0, {}], ["mixed9_1", 0, 0, {}], ["concatenate_9", 0, 0, {}], ["activation_469", 0, 0, {}]]]}], "input_layers": [["input_9", 0, 0]], "output_layers": [["mixed10", 0, 0]]}, "name": "inception_v3", "inbound_nodes": [[["tf.math.subtract_3", 0, 0, {"training": false}]]]}, {"class_name": "Flatten", "config": {"name": "flatten_4", "trainable": true, "dtype": "float32", "data_format": "channels_last"}, "name": "flatten_4", "inbound_nodes": [[["inception_v3", 1, 0, {}]]]}, {"class_name": "Dense", "config": {"name": "dense_12", "trainable": true, "dtype": "float32", "units": 4096, "activation": "relu", "use_bias": true, "kernel_initializer": {"class_name": "GlorotUniform", "config": {"seed": null}}, "bias_initializer": {"class_name": "Zeros", "config": {}}, "kernel_regularizer": null, "bias_regularizer": null, "activity_regularizer": null, "kernel_constraint": null, "bias_constraint": null}, "name": "dense_12", "inbound_nodes": [[["flatten_4", 0, 0, {}]]]}, {"class_name": "Dense", "config": {"name": "dense_13", "trainable": true, "dtype": "float32", "units": 4096, "activation": "relu", "use_bias": true, "kernel_initializer": {"class_name": "GlorotUniform", "config": {"seed": null}}, "bias_initializer": {"class_name": "Zeros", "config": {}}, "kernel_regularizer": null, "bias_regularizer": null, "activity_regularizer": null, "kernel_constraint": null, "bias_constraint": null}, "name": "dense_13", "inbound_nodes": [[["dense_12", 0, 0, {}]]]}, {"class_name": "Dense", "config": {"name": "dense_14", "trainable": true, "dtype": "float32", "units": 1, "activation": "linear", "use_bias": true, "kernel_initializer": {"class_name": "GlorotUniform", "config": {"seed": null}}, "bias_initializer": {"class_name": "Zeros", "config": {}}, "kernel_regularizer": null, "bias_regularizer": null, "activity_regularizer": null, "kernel_constraint": null, "bias_constraint": null}, "name": "dense_14", "inbound_nodes": [[["dense_13", 0, 0, {}]]]}], "input_layers": [["input_10", 0, 0]], "output_layers": [["dense_14", 0, 0]]}}, "training_config": {"loss": {"class_name": "BinaryCrossentropy", "config": {"reduction": "auto", "name": "binary_crossentropy", "from_logits": true, "label_smoothing": 0, "axis": -1}}, "metrics": [[{"class_name": "MeanMetricWrapper", "config": {"name": "accuracy", "dtype": "float32", "fn": "binary_accuracy"}}]], "weighted_metrics": null, "loss_weights": null, "optimizer_config": {"class_name": "Adam", "config": {"name": "Adam", "learning_rate": 9.999999974752427e-07, "decay": 0.0, "beta_1": 0.8999999761581421, "beta_2": 0.9990000128746033, "epsilon": 1e-07, "amsgrad": false}}}}, "weightsManifest": [{"paths": ["group1-shard1of237.bin", "group1-shard2of237.bin", "group1-shard3of237.bin", "group1-shard4of237.bin", "group1-shard5of237.bin", "group1-shard6of237.bin", "group1-shard7of237.bin", "group1-shard8of237.bin", "group1-shard9of237.bin", "group1-shard10of237.bin", "group1-shard11of237.bin", "group1-shard12of237.bin", "group1-shard13of237.bin", "group1-shard14of237.bin", "group1-shard15of237.bin", "group1-shard16of237.bin", "group1-shard17of237.bin", "group1-shard18of237.bin", "group1-shard19of237.bin", "group1-shard20of237.bin", "group1-shard21of237.bin", "group1-shard22of237.bin", "group1-shard23of237.bin", "group1-shard24of237.bin", "group1-shard25of237.bin", "group1-shard26of237.bin", "group1-shard27of237.bin", "group1-shard28of237.bin", "group1-shard29of237.bin", "group1-shard30of237.bin", "group1-shard31of237.bin", "group1-shard32of237.bin", "group1-shard33of237.bin", "group1-shard34of237.bin", "group1-shard35of237.bin", "group1-shard36of237.bin", "group1-shard37of237.bin", "group1-shard38of237.bin", "group1-shard39of237.bin", "group1-shard40of237.bin", "group1-shard41of237.bin", "group1-shard42of237.bin", "group1-shard43of237.bin", "group1-shard44of237.bin", "group1-shard45of237.bin", "group1-shard46of237.bin", "group1-shard47of237.bin", "group1-shard48of237.bin", "group1-shard49of237.bin", "group1-shard50of237.bin", "group1-shard51of237.bin", "group1-shard52of237.bin", "group1-shard53of237.bin", "group1-shard54of237.bin", "group1-shard55of237.bin", "group1-shard56of237.bin", "group1-shard57of237.bin", "group1-shard58of237.bin", "group1-shard59of237.bin", "group1-shard60of237.bin", "group1-shard61of237.bin", "group1-shard62of237.bin", "group1-shard63of237.bin", "group1-shard64of237.bin", "group1-shard65of237.bin", "group1-shard66of237.bin", "group1-shard67of237.bin", "group1-shard68of237.bin", "group1-shard69of237.bin", "group1-shard70of237.bin", "group1-shard71of237.bin", "group1-shard72of237.bin", "group1-shard73of237.bin", "group1-shard74of237.bin", "group1-shard75of237.bin", "group1-shard76of237.bin", "group1-shard77of237.bin", "group1-shard78of237.bin", "group1-shard79of237.bin", "group1-shard80of237.bin", "group1-shard81of237.bin", "group1-shard82of237.bin", "group1-shard83of237.bin", "group1-shard84of237.bin", "group1-shard85of237.bin", "group1-shard86of237.bin", "group1-shard87of237.bin", "group1-shard88of237.bin", "group1-shard89of237.bin", "group1-shard90of237.bin", "group1-shard91of237.bin", "group1-shard92of237.bin", "group1-shard93of237.bin", "group1-shard94of237.bin", "group1-shard95of237.bin", "group1-shard96of237.bin", "group1-shard97of237.bin", "group1-shard98of237.bin", "group1-shard99of237.bin", "group1-shard100of237.bin", "group1-shard101of237.bin", "group1-shard102of237.bin", "group1-shard103of237.bin", "group1-shard104of237.bin", "group1-shard105of237.bin", "group1-shard106of237.bin", "group1-shard107of237.bin", "group1-shard108of237.bin", "group1-shard109of237.bin", "group1-shard110of237.bin", "group1-shard111of237.bin", "group1-shard112of237.bin", "group1-shard113of237.bin", "group1-shard114of237.bin", "group1-shard115of237.bin", "group1-shard116of237.bin", "group1-shard117of237.bin", "group1-shard118of237.bin", "group1-shard119of237.bin", "group1-shard120of237.bin", "group1-shard121of237.bin", "group1-shard122of237.bin", "group1-shard123of237.bin", "group1-shard124of237.bin", "group1-shard125of237.bin", "group1-shard126of237.bin", "group1-shard127of237.bin", "group1-shard128of237.bin", "group1-shard129of237.bin", "group1-shard130of237.bin", "group1-shard131of237.bin", "group1-shard132of237.bin", "group1-shard133of237.bin", "group1-shard134of237.bin", "group1-shard135of237.bin", "group1-shard136of237.bin", "group1-shard137of237.bin", "group1-shard138of237.bin", "group1-shard139of237.bin", "group1-shard140of237.bin", "group1-shard141of237.bin", "group1-shard142of237.bin", "group1-shard143of237.bin", "group1-shard144of237.bin", "group1-shard145of237.bin", "group1-shard146of237.bin", "group1-shard147of237.bin", "group1-shard148of237.bin", "group1-shard149of237.bin", "group1-shard150of237.bin", "group1-shard151of237.bin", "group1-shard152of237.bin", "group1-shard153of237.bin", "group1-shard154of237.bin", "group1-shard155of237.bin", "group1-shard156of237.bin", "group1-shard157of237.bin", "group1-shard158of237.bin", "group1-shard159of237.bin", "group1-shard160of237.bin", "group1-shard161of237.bin", "group1-shard162of237.bin", "group1-shard163of237.bin", "group1-shard164of237.bin", "group1-shard165of237.bin", "group1-shard166of237.bin", "group1-shard167of237.bin", "group1-shard168of237.bin", "group1-shard169of237.bin", "group1-shard170of237.bin", "group1-shard171of237.bin", "group1-shard172of237.bin", "group1-shard173of237.bin", "group1-shard174of237.bin", "group1-shard175of237.bin", "group1-shard176of237.bin", "group1-shard177of237.bin", "group1-shard178of237.bin", "group1-shard179of237.bin", "group1-shard180of237.bin", "group1-shard181of237.bin", "group1-shard182of237.bin", "group1-shard183of237.bin", "group1-shard184of237.bin", "group1-shard185of237.bin", "group1-shard186of237.bin", "group1-shard187of237.bin", "group1-shard188of237.bin", "group1-shard189of237.bin", "group1-shard190of237.bin", "group1-shard191of237.bin", "group1-shard192of237.bin", "group1-shard193of237.bin", "group1-shard194of237.bin", "group1-shard195of237.bin", "group1-shard196of237.bin", "group1-shard197of237.bin", "group1-shard198of237.bin", "group1-shard199of237.bin", "group1-shard200of237.bin", "group1-shard201of237.bin", "group1-shard202of237.bin", "group1-shard203of237.bin", "group1-shard204of237.bin", "group1-shard205of237.bin", "group1-shard206of237.bin", "group1-shard207of237.bin", "group1-shard208of237.bin", "group1-shard209of237.bin", "group1-shard210of237.bin", "group1-shard211of237.bin", "group1-shard212of237.bin", "group1-shard213of237.bin", "group1-shard214of237.bin", "group1-shard215of237.bin", "group1-shard216of237.bin", "group1-shard217of237.bin", "group1-shard218of237.bin", "group1-shard219of237.bin", "group1-shard220of237.bin", "group1-shard221of237.bin", "group1-shard222of237.bin", "group1-shard223of237.bin", "group1-shard224of237.bin", "group1-shard225of237.bin", "group1-shard226of237.bin", "group1-shard227of237.bin", "group1-shard228of237.bin", "group1-shard229of237.bin", "group1-shard230of237.bin", "group1-shard231of237.bin", "group1-shard232of237.bin", "group1-shard233of237.bin", "group1-shard234of237.bin", "group1-shard235of237.bin", "group1-shard236of237.bin", "group1-shard237of237.bin"], "weights": [{"name": "dense_12/kernel", "shape": [51200, 4096], "dtype": "float32"}, {"name": "dense_12/bias", "shape": [4096], "dtype": "float32"}, {"name": "dense_13/kernel", "shape": [4096, 4096], "dtype": "float32"}, {"name": "dense_13/bias", "shape": [4096], "dtype": "float32"}, {"name": "dense_14/kernel", "shape": [4096, 1], "dtype": "float32"}, {"name": "dense_14/bias", "shape": [1], "dtype": "float32"}, {"name": "conv2d_376/kernel", "shape": [3, 3, 3, 32], "dtype": "float32"}, {"name": "batch_normalization_376/beta", "shape": [32], "dtype": "float32"}, {"name": "batch_normalization_376/moving_mean", "shape": [32], "dtype": "float32"}, {"name": "batch_normalization_376/moving_variance", "shape": [32], "dtype": "float32"}, {"name": "conv2d_377/kernel", "shape": [3, 3, 32, 32], "dtype": "float32"}, {"name": "batch_normalization_377/beta", "shape": [32], "dtype": "float32"}, {"name": "batch_normalization_377/moving_mean", "shape": [32], "dtype": "float32"}, {"name": "batch_normalization_377/moving_variance", "shape": [32], "dtype": "float32"}, {"name": "conv2d_378/kernel", "shape": [3, 3, 32, 64], "dtype": "float32"}, {"name": "batch_normalization_378/beta", "shape": [64], "dtype": "float32"}, {"name": "batch_normalization_378/moving_mean", "shape": [64], "dtype": "float32"}, {"name": "batch_normalization_378/moving_variance", "shape": [64], "dtype": "float32"}, {"name": "conv2d_379/kernel", "shape": [1, 1, 64, 80], "dtype": "float32"}, {"name": "batch_normalization_379/beta", "shape": [80], "dtype": "float32"}, {"name": "batch_normalization_379/moving_mean", "shape": [80], "dtype": "float32"}, {"name": "batch_normalization_379/moving_variance", "shape": [80], "dtype": "float32"}, {"name": "conv2d_380/kernel", "shape": [3, 3, 80, 192], "dtype": "float32"}, {"name": "batch_normalization_380/beta", "shape": [192], "dtype": "float32"}, {"name": "batch_normalization_380/moving_mean", "shape": [192], "dtype": "float32"}, {"name": "batch_normalization_380/moving_variance", "shape": [192], "dtype": "float32"}, {"name": "conv2d_384/kernel", "shape": [1, 1, 192, 64], "dtype": "float32"}, {"name": "batch_normalization_384/beta", "shape": [64], "dtype": "float32"}, {"name": "batch_normalization_384/moving_mean", "shape": [64], "dtype": "float32"}, {"name": "batch_normalization_384/moving_variance", "shape": [64], "dtype": "float32"}, {"name": "conv2d_382/kernel", "shape": [1, 1, 192, 48], "dtype": "float32"}, {"name": "conv2d_385/kernel", "shape": [3, 3, 64, 96], "dtype": "float32"}, {"name": "batch_normalization_382/beta", "shape": [48], "dtype": "float32"}, {"name": "batch_normalization_382/moving_mean", "shape": [48], "dtype": "float32"}, {"name": "batch_normalization_382/moving_variance", "shape": [48], "dtype": "float32"}, {"name": "batch_normalization_385/beta", "shape": [96], "dtype": "float32"}, {"name": "batch_normalization_385/moving_mean", "shape": [96], "dtype": "float32"}, {"name": "batch_normalization_385/moving_variance", "shape": [96], "dtype": "float32"}, {"name": "conv2d_381/kernel", "shape": [1, 1, 192, 64], "dtype": "float32"}, {"name": "conv2d_383/kernel", "shape": [5, 5, 48, 64], "dtype": "float32"}, {"name": "conv2d_386/kernel", "shape": [3, 3, 96, 96], "dtype": "float32"}, {"name": "conv2d_387/kernel", "shape": [1, 1, 192, 32], "dtype": "float32"}, {"name": "batch_normalization_381/beta", "shape": [64], "dtype": "float32"}, {"name": "batch_normalization_381/moving_mean", "shape": [64], "dtype": "float32"}, {"name": "batch_normalization_381/moving_variance", "shape": [64], "dtype": "float32"}, {"name": "batch_normalization_383/beta", "shape": [64], "dtype": "float32"}, {"name": "batch_normalization_383/moving_mean", "shape": [64], "dtype": "float32"}, {"name": "batch_normalization_383/moving_variance", "shape": [64], "dtype": "float32"}, {"name": "batch_normalization_386/beta", "shape": [96], "dtype": "float32"}, {"name": "batch_normalization_386/moving_mean", "shape": [96], "dtype": "float32"}, {"name": "batch_normalization_386/moving_variance", "shape": [96], "dtype": "float32"}, {"name": "batch_normalization_387/beta", "shape": [32], "dtype": "float32"}, {"name": "batch_normalization_387/moving_mean", "shape": [32], "dtype": "float32"}, {"name": "batch_normalization_387/moving_variance", "shape": [32], "dtype": "float32"}, {"name": "conv2d_391/kernel", "shape": [1, 1, 256, 64], "dtype": "float32"}, {"name": "batch_normalization_391/beta", "shape": [64], "dtype": "float32"}, {"name": "batch_normalization_391/moving_mean", "shape": [64], "dtype": "float32"}, {"name": "batch_normalization_391/moving_variance", "shape": [64], "dtype": "float32"}, {"name": "conv2d_389/kernel", "shape": [1, 1, 256, 48], "dtype": "float32"}, {"name": "conv2d_392/kernel", "shape": [3, 3, 64, 96], "dtype": "float32"}, {"name": "batch_normalization_389/beta", "shape": [48], "dtype": "float32"}, {"name": "batch_normalization_389/moving_mean", "shape": [48], "dtype": "float32"}, {"name": "batch_normalization_389/moving_variance", "shape": [48], "dtype": "float32"}, {"name": "batch_normalization_392/beta", "shape": [96], "dtype": "float32"}, {"name": "batch_normalization_392/moving_mean", "shape": [96], "dtype": "float32"}, {"name": "batch_normalization_392/moving_variance", "shape": [96], "dtype": "float32"}, {"name": "conv2d_388/kernel", "shape": [1, 1, 256, 64], "dtype": "float32"}, {"name": "conv2d_390/kernel", "shape": [5, 5, 48, 64], "dtype": "float32"}, {"name": "conv2d_393/kernel", "shape": [3, 3, 96, 96], "dtype": "float32"}, {"name": "conv2d_394/kernel", "shape": [1, 1, 256, 64], "dtype": "float32"}, {"name": "batch_normalization_388/beta", "shape": [64], "dtype": "float32"}, {"name": "batch_normalization_388/moving_mean", "shape": [64], "dtype": "float32"}, {"name": "batch_normalization_388/moving_variance", "shape": [64], "dtype": "float32"}, {"name": "batch_normalization_390/beta", "shape": [64], "dtype": "float32"}, {"name": "batch_normalization_390/moving_mean", "shape": [64], "dtype": "float32"}, {"name": "batch_normalization_390/moving_variance", "shape": [64], "dtype": "float32"}, {"name": "batch_normalization_393/beta", "shape": [96], "dtype": "float32"}, {"name": "batch_normalization_393/moving_mean", "shape": [96], "dtype": "float32"}, {"name": "batch_normalization_393/moving_variance", "shape": [96], "dtype": "float32"}, {"name": "batch_normalization_394/beta", "shape": [64], "dtype": "float32"}, {"name": "batch_normalization_394/moving_mean", "shape": [64], "dtype": "float32"}, {"name": "batch_normalization_394/moving_variance", "shape": [64], "dtype": "float32"}, {"name": "conv2d_398/kernel", "shape": [1, 1, 288, 64], "dtype": "float32"}, {"name": "batch_normalization_398/beta", "shape": [64], "dtype": "float32"}, {"name": "batch_normalization_398/moving_mean", "shape": [64], "dtype": "float32"}, {"name": "batch_normalization_398/moving_variance", "shape": [64], "dtype": "float32"}, {"name": "conv2d_396/kernel", "shape": [1, 1, 288, 48], "dtype": "float32"}, {"name": "conv2d_399/kernel", "shape": [3, 3, 64, 96], "dtype": "float32"}, {"name": "batch_normalization_396/beta", "shape": [48], "dtype": "float32"}, {"name": "batch_normalization_396/moving_mean", "shape": [48], "dtype": "float32"}, {"name": "batch_normalization_396/moving_variance", "shape": [48], "dtype": "float32"}, {"name": "batch_normalization_399/beta", "shape": [96], "dtype": "float32"}, {"name": "batch_normalization_399/moving_mean", "shape": [96], "dtype": "float32"}, {"name": "batch_normalization_399/moving_variance", "shape": [96], "dtype": "float32"}, {"name": "conv2d_395/kernel", "shape": [1, 1, 288, 64], "dtype": "float32"}, {"name": "conv2d_397/kernel", "shape": [5, 5, 48, 64], "dtype": "float32"}, {"name": "conv2d_400/kernel", "shape": [3, 3, 96, 96], "dtype": "float32"}, {"name": "conv2d_401/kernel", "shape": [1, 1, 288, 64], "dtype": "float32"}, {"name": "batch_normalization_395/beta", "shape": [64], "dtype": "float32"}, {"name": "batch_normalization_395/moving_mean", "shape": [64], "dtype": "float32"}, {"name": "batch_normalization_395/moving_variance", "shape": [64], "dtype": "float32"}, {"name": "batch_normalization_397/beta", "shape": [64], "dtype": "float32"}, {"name": "batch_normalization_397/moving_mean", "shape": [64], "dtype": "float32"}, {"name": "batch_normalization_397/moving_variance", "shape": [64], "dtype": "float32"}, {"name": "batch_normalization_400/beta", "shape": [96], "dtype": "float32"}, {"name": "batch_normalization_400/moving_mean", "shape": [96], "dtype": "float32"}, {"name": "batch_normalization_400/moving_variance", "shape": [96], "dtype": "float32"}, {"name": "batch_normalization_401/beta", "shape": [64], "dtype": "float32"}, {"name": "batch_normalization_401/moving_mean", "shape": [64], "dtype": "float32"}, {"name": "batch_normalization_401/moving_variance", "shape": [64], "dtype": "float32"}, {"name": "conv2d_403/kernel", "shape": [1, 1, 288, 64], "dtype": "float32"}, {"name": "batch_normalization_403/beta", "shape": [64], "dtype": "float32"}, {"name": "batch_normalization_403/moving_mean", "shape": [64], "dtype": "float32"}, {"name": "batch_normalization_403/moving_variance", "shape": [64], "dtype": "float32"}, {"name": "conv2d_404/kernel", "shape": [3, 3, 64, 96], "dtype": "float32"}, {"name": "batch_normalization_404/beta", "shape": [96], "dtype": "float32"}, {"name": "batch_normalization_404/moving_mean", "shape": [96], "dtype": "float32"}, {"name": "batch_normalization_404/moving_variance", "shape": [96], "dtype": "float32"}, {"name": "conv2d_402/kernel", "shape": [3, 3, 288, 384], "dtype": "float32"}, {"name": "conv2d_405/kernel", "shape": [3, 3, 96, 96], "dtype": "float32"}, {"name": "batch_normalization_402/beta", "shape": [384], "dtype": "float32"}, {"name": "batch_normalization_402/moving_mean", "shape": [384], "dtype": "float32"}, {"name": "batch_normalization_402/moving_variance", "shape": [384], "dtype": "float32"}, {"name": "batch_normalization_405/beta", "shape": [96], "dtype": "float32"}, {"name": "batch_normalization_405/moving_mean", "shape": [96], "dtype": "float32"}, {"name": "batch_normalization_405/moving_variance", "shape": [96], "dtype": "float32"}, {"name": "conv2d_410/kernel", "shape": [1, 1, 768, 128], "dtype": "float32"}, {"name": "batch_normalization_410/beta", "shape": [128], "dtype": "float32"}, {"name": "batch_normalization_410/moving_mean", "shape": [128], "dtype": "float32"}, {"name": "batch_normalization_410/moving_variance", "shape": [128], "dtype": "float32"}, {"name": "conv2d_411/kernel", "shape": [7, 1, 128, 128], "dtype": "float32"}, {"name": "batch_normalization_411/beta", "shape": [128], "dtype": "float32"}, {"name": "batch_normalization_411/moving_mean", "shape": [128], "dtype": "float32"}, {"name": "batch_normalization_411/moving_variance", "shape": [128], "dtype": "float32"}, {"name": "conv2d_407/kernel", "shape": [1, 1, 768, 128], "dtype": "float32"}, {"name": "conv2d_412/kernel", "shape": [1, 7, 128, 128], "dtype": "float32"}, {"name": "batch_normalization_407/beta", "shape": [128], "dtype": "float32"}, {"name": "batch_normalization_407/moving_mean", "shape": [128], "dtype": "float32"}, {"name": "batch_normalization_407/moving_variance", "shape": [128], "dtype": "float32"}, {"name": "batch_normalization_412/beta", "shape": [128], "dtype": "float32"}, {"name": "batch_normalization_412/moving_mean", "shape": [128], "dtype": "float32"}, {"name": "batch_normalization_412/moving_variance", "shape": [128], "dtype": "float32"}, {"name": "conv2d_408/kernel", "shape": [1, 7, 128, 128], "dtype": "float32"}, {"name": "conv2d_413/kernel", "shape": [7, 1, 128, 128], "dtype": "float32"}, {"name": "batch_normalization_408/beta", "shape": [128], "dtype": "float32"}, {"name": "batch_normalization_408/moving_mean", "shape": [128], "dtype": "float32"}, {"name": "batch_normalization_408/moving_variance", "shape": [128], "dtype": "float32"}, {"name": "batch_normalization_413/beta", "shape": [128], "dtype": "float32"}, {"name": "batch_normalization_413/moving_mean", "shape": [128], "dtype": "float32"}, {"name": "batch_normalization_413/moving_variance", "shape": [128], "dtype": "float32"}, {"name": "conv2d_406/kernel", "shape": [1, 1, 768, 192], "dtype": "float32"}, {"name": "conv2d_409/kernel", "shape": [7, 1, 128, 192], "dtype": "float32"}, {"name": "conv2d_414/kernel", "shape": [1, 7, 128, 192], "dtype": "float32"}, {"name": "conv2d_415/kernel", "shape": [1, 1, 768, 192], "dtype": "float32"}, {"name": "batch_normalization_406/beta", "shape": [192], "dtype": "float32"}, {"name": "batch_normalization_406/moving_mean", "shape": [192], "dtype": "float32"}, {"name": "batch_normalization_406/moving_variance", "shape": [192], "dtype": "float32"}, {"name": "batch_normalization_409/beta", "shape": [192], "dtype": "float32"}, {"name": "batch_normalization_409/moving_mean", "shape": [192], "dtype": "float32"}, {"name": "batch_normalization_409/moving_variance", "shape": [192], "dtype": "float32"}, {"name": "batch_normalization_414/beta", "shape": [192], "dtype": "float32"}, {"name": "batch_normalization_414/moving_mean", "shape": [192], "dtype": "float32"}, {"name": "batch_normalization_414/moving_variance", "shape": [192], "dtype": "float32"}, {"name": "batch_normalization_415/beta", "shape": [192], "dtype": "float32"}, {"name": "batch_normalization_415/moving_mean", "shape": [192], "dtype": "float32"}, {"name": "batch_normalization_415/moving_variance", "shape": [192], "dtype": "float32"}, {"name": "conv2d_420/kernel", "shape": [1, 1, 768, 160], "dtype": "float32"}, {"name": "batch_normalization_420/beta", "shape": [160], "dtype": "float32"}, {"name": "batch_normalization_420/moving_mean", "shape": [160], "dtype": "float32"}, {"name": "batch_normalization_420/moving_variance", "shape": [160], "dtype": "float32"}, {"name": "conv2d_421/kernel", "shape": [7, 1, 160, 160], "dtype": "float32"}, {"name": "batch_normalization_421/beta", "shape": [160], "dtype": "float32"}, {"name": "batch_normalization_421/moving_mean", "shape": [160], "dtype": "float32"}, {"name": "batch_normalization_421/moving_variance", "shape": [160], "dtype": "float32"}, {"name": "conv2d_417/kernel", "shape": [1, 1, 768, 160], "dtype": "float32"}, {"name": "conv2d_422/kernel", "shape": [1, 7, 160, 160], "dtype": "float32"}, {"name": "batch_normalization_417/beta", "shape": [160], "dtype": "float32"}, {"name": "batch_normalization_417/moving_mean", "shape": [160], "dtype": "float32"}, {"name": "batch_normalization_417/moving_variance", "shape": [160], "dtype": "float32"}, {"name": "batch_normalization_422/beta", "shape": [160], "dtype": "float32"}, {"name": "batch_normalization_422/moving_mean", "shape": [160], "dtype": "float32"}, {"name": "batch_normalization_422/moving_variance", "shape": [160], "dtype": "float32"}, {"name": "conv2d_418/kernel", "shape": [1, 7, 160, 160], "dtype": "float32"}, {"name": "conv2d_423/kernel", "shape": [7, 1, 160, 160], "dtype": "float32"}, {"name": "batch_normalization_418/beta", "shape": [160], "dtype": "float32"}, {"name": "batch_normalization_418/moving_mean", "shape": [160], "dtype": "float32"}, {"name": "batch_normalization_418/moving_variance", "shape": [160], "dtype": "float32"}, {"name": "batch_normalization_423/beta", "shape": [160], "dtype": "float32"}, {"name": "batch_normalization_423/moving_mean", "shape": [160], "dtype": "float32"}, {"name": "batch_normalization_423/moving_variance", "shape": [160], "dtype": "float32"}, {"name": "conv2d_416/kernel", "shape": [1, 1, 768, 192], "dtype": "float32"}, {"name": "conv2d_419/kernel", "shape": [7, 1, 160, 192], "dtype": "float32"}, {"name": "conv2d_424/kernel", "shape": [1, 7, 160, 192], "dtype": "float32"}, {"name": "conv2d_425/kernel", "shape": [1, 1, 768, 192], "dtype": "float32"}, {"name": "batch_normalization_416/beta", "shape": [192], "dtype": "float32"}, {"name": "batch_normalization_416/moving_mean", "shape": [192], "dtype": "float32"}, {"name": "batch_normalization_416/moving_variance", "shape": [192], "dtype": "float32"}, {"name": "batch_normalization_419/beta", "shape": [192], "dtype": "float32"}, {"name": "batch_normalization_419/moving_mean", "shape": [192], "dtype": "float32"}, {"name": "batch_normalization_419/moving_variance", "shape": [192], "dtype": "float32"}, {"name": "batch_normalization_424/beta", "shape": [192], "dtype": "float32"}, {"name": "batch_normalization_424/moving_mean", "shape": [192], "dtype": "float32"}, {"name": "batch_normalization_424/moving_variance", "shape": [192], "dtype": "float32"}, {"name": "batch_normalization_425/beta", "shape": [192], "dtype": "float32"}, {"name": "batch_normalization_425/moving_mean", "shape": [192], "dtype": "float32"}, {"name": "batch_normalization_425/moving_variance", "shape": [192], "dtype": "float32"}, {"name": "conv2d_430/kernel", "shape": [1, 1, 768, 160], "dtype": "float32"}, {"name": "batch_normalization_430/beta", "shape": [160], "dtype": "float32"}, {"name": "batch_normalization_430/moving_mean", "shape": [160], "dtype": "float32"}, {"name": "batch_normalization_430/moving_variance", "shape": [160], "dtype": "float32"}, {"name": "conv2d_431/kernel", "shape": [7, 1, 160, 160], "dtype": "float32"}, {"name": "batch_normalization_431/beta", "shape": [160], "dtype": "float32"}, {"name": "batch_normalization_431/moving_mean", "shape": [160], "dtype": "float32"}, {"name": "batch_normalization_431/moving_variance", "shape": [160], "dtype": "float32"}, {"name": "conv2d_427/kernel", "shape": [1, 1, 768, 160], "dtype": "float32"}, {"name": "conv2d_432/kernel", "shape": [1, 7, 160, 160], "dtype": "float32"}, {"name": "batch_normalization_427/beta", "shape": [160], "dtype": "float32"}, {"name": "batch_normalization_427/moving_mean", "shape": [160], "dtype": "float32"}, {"name": "batch_normalization_427/moving_variance", "shape": [160], "dtype": "float32"}, {"name": "batch_normalization_432/beta", "shape": [160], "dtype": "float32"}, {"name": "batch_normalization_432/moving_mean", "shape": [160], "dtype": "float32"}, {"name": "batch_normalization_432/moving_variance", "shape": [160], "dtype": "float32"}, {"name": "conv2d_428/kernel", "shape": [1, 7, 160, 160], "dtype": "float32"}, {"name": "conv2d_433/kernel", "shape": [7, 1, 160, 160], "dtype": "float32"}, {"name": "batch_normalization_428/beta", "shape": [160], "dtype": "float32"}, {"name": "batch_normalization_428/moving_mean", "shape": [160], "dtype": "float32"}, {"name": "batch_normalization_428/moving_variance", "shape": [160], "dtype": "float32"}, {"name": "batch_normalization_433/beta", "shape": [160], "dtype": "float32"}, {"name": "batch_normalization_433/moving_mean", "shape": [160], "dtype": "float32"}, {"name": "batch_normalization_433/moving_variance", "shape": [160], "dtype": "float32"}, {"name": "conv2d_426/kernel", "shape": [1, 1, 768, 192], "dtype": "float32"}, {"name": "conv2d_429/kernel", "shape": [7, 1, 160, 192], "dtype": "float32"}, {"name": "conv2d_434/kernel", "shape": [1, 7, 160, 192], "dtype": "float32"}, {"name": "conv2d_435/kernel", "shape": [1, 1, 768, 192], "dtype": "float32"}, {"name": "batch_normalization_426/beta", "shape": [192], "dtype": "float32"}, {"name": "batch_normalization_426/moving_mean", "shape": [192], "dtype": "float32"}, {"name": "batch_normalization_426/moving_variance", "shape": [192], "dtype": "float32"}, {"name": "batch_normalization_429/beta", "shape": [192], "dtype": "float32"}, {"name": "batch_normalization_429/moving_mean", "shape": [192], "dtype": "float32"}, {"name": "batch_normalization_429/moving_variance", "shape": [192], "dtype": "float32"}, {"name": "batch_normalization_434/beta", "shape": [192], "dtype": "float32"}, {"name": "batch_normalization_434/moving_mean", "shape": [192], "dtype": "float32"}, {"name": "batch_normalization_434/moving_variance", "shape": [192], "dtype": "float32"}, {"name": "batch_normalization_435/beta", "shape": [192], "dtype": "float32"}, {"name": "batch_normalization_435/moving_mean", "shape": [192], "dtype": "float32"}, {"name": "batch_normalization_435/moving_variance", "shape": [192], "dtype": "float32"}, {"name": "conv2d_440/kernel", "shape": [1, 1, 768, 192], "dtype": "float32"}, {"name": "batch_normalization_440/beta", "shape": [192], "dtype": "float32"}, {"name": "batch_normalization_440/moving_mean", "shape": [192], "dtype": "float32"}, {"name": "batch_normalization_440/moving_variance", "shape": [192], "dtype": "float32"}, {"name": "conv2d_441/kernel", "shape": [7, 1, 192, 192], "dtype": "float32"}, {"name": "batch_normalization_441/beta", "shape": [192], "dtype": "float32"}, {"name": "batch_normalization_441/moving_mean", "shape": [192], "dtype": "float32"}, {"name": "batch_normalization_441/moving_variance", "shape": [192], "dtype": "float32"}, {"name": "conv2d_437/kernel", "shape": [1, 1, 768, 192], "dtype": "float32"}, {"name": "conv2d_442/kernel", "shape": [1, 7, 192, 192], "dtype": "float32"}, {"name": "batch_normalization_437/beta", "shape": [192], "dtype": "float32"}, {"name": "batch_normalization_437/moving_mean", "shape": [192], "dtype": "float32"}, {"name": "batch_normalization_437/moving_variance", "shape": [192], "dtype": "float32"}, {"name": "batch_normalization_442/beta", "shape": [192], "dtype": "float32"}, {"name": "batch_normalization_442/moving_mean", "shape": [192], "dtype": "float32"}, {"name": "batch_normalization_442/moving_variance", "shape": [192], "dtype": "float32"}, {"name": "conv2d_438/kernel", "shape": [1, 7, 192, 192], "dtype": "float32"}, {"name": "conv2d_443/kernel", "shape": [7, 1, 192, 192], "dtype": "float32"}, {"name": "batch_normalization_438/beta", "shape": [192], "dtype": "float32"}, {"name": "batch_normalization_438/moving_mean", "shape": [192], "dtype": "float32"}, {"name": "batch_normalization_438/moving_variance", "shape": [192], "dtype": "float32"}, {"name": "batch_normalization_443/beta", "shape": [192], "dtype": "float32"}, {"name": "batch_normalization_443/moving_mean", "shape": [192], "dtype": "float32"}, {"name": "batch_normalization_443/moving_variance", "shape": [192], "dtype": "float32"}, {"name": "conv2d_436/kernel", "shape": [1, 1, 768, 192], "dtype": "float32"}, {"name": "conv2d_439/kernel", "shape": [7, 1, 192, 192], "dtype": "float32"}, {"name": "conv2d_444/kernel", "shape": [1, 7, 192, 192], "dtype": "float32"}, {"name": "conv2d_445/kernel", "shape": [1, 1, 768, 192], "dtype": "float32"}, {"name": "batch_normalization_436/beta", "shape": [192], "dtype": "float32"}, {"name": "batch_normalization_436/moving_mean", "shape": [192], "dtype": "float32"}, {"name": "batch_normalization_436/moving_variance", "shape": [192], "dtype": "float32"}, {"name": "batch_normalization_439/beta", "shape": [192], "dtype": "float32"}, {"name": "batch_normalization_439/moving_mean", "shape": [192], "dtype": "float32"}, {"name": "batch_normalization_439/moving_variance", "shape": [192], "dtype": "float32"}, {"name": "batch_normalization_444/beta", "shape": [192], "dtype": "float32"}, {"name": "batch_normalization_444/moving_mean", "shape": [192], "dtype": "float32"}, {"name": "batch_normalization_444/moving_variance", "shape": [192], "dtype": "float32"}, {"name": "batch_normalization_445/beta", "shape": [192], "dtype": "float32"}, {"name": "batch_normalization_445/moving_mean", "shape": [192], "dtype": "float32"}, {"name": "batch_normalization_445/moving_variance", "shape": [192], "dtype": "float32"}, {"name": "conv2d_448/kernel", "shape": [1, 1, 768, 192], "dtype": "float32"}, {"name": "batch_normalization_448/beta", "shape": [192], "dtype": "float32"}, {"name": "batch_normalization_448/moving_mean", "shape": [192], "dtype": "float32"}, {"name": "batch_normalization_448/moving_variance", "shape": [192], "dtype": "float32"}, {"name": "conv2d_449/kernel", "shape": [1, 7, 192, 192], "dtype": "float32"}, {"name": "batch_normalization_449/beta", "shape": [192], "dtype": "float32"}, {"name": "batch_normalization_449/moving_mean", "shape": [192], "dtype": "float32"}, {"name": "batch_normalization_449/moving_variance", "shape": [192], "dtype": "float32"}, {"name": "conv2d_446/kernel", "shape": [1, 1, 768, 192], "dtype": "float32"}, {"name": "conv2d_450/kernel", "shape": [7, 1, 192, 192], "dtype": "float32"}, {"name": "batch_normalization_446/beta", "shape": [192], "dtype": "float32"}, {"name": "batch_normalization_446/moving_mean", "shape": [192], "dtype": "float32"}, {"name": "batch_normalization_446/moving_variance", "shape": [192], "dtype": "float32"}, {"name": "batch_normalization_450/beta", "shape": [192], "dtype": "float32"}, {"name": "batch_normalization_450/moving_mean", "shape": [192], "dtype": "float32"}, {"name": "batch_normalization_450/moving_variance", "shape": [192], "dtype": "float32"}, {"name": "conv2d_447/kernel", "shape": [3, 3, 192, 320], "dtype": "float32"}, {"name": "conv2d_451/kernel", "shape": [3, 3, 192, 192], "dtype": "float32"}, {"name": "batch_normalization_447/beta", "shape": [320], "dtype": "float32"}, {"name": "batch_normalization_447/moving_mean", "shape": [320], "dtype": "float32"}, {"name": "batch_normalization_447/moving_variance", "shape": [320], "dtype": "float32"}, {"name": "batch_normalization_451/beta", "shape": [192], "dtype": "float32"}, {"name": "batch_normalization_451/moving_mean", "shape": [192], "dtype": "float32"}, {"name": "batch_normalization_451/moving_variance", "shape": [192], "dtype": "float32"}, {"name": "conv2d_456/kernel", "shape": [1, 1, 1280, 448], "dtype": "float32"}, {"name": "batch_normalization_456/beta", "shape": [448], "dtype": "float32"}, {"name": "batch_normalization_456/moving_mean", "shape": [448], "dtype": "float32"}, {"name": "batch_normalization_456/moving_variance", "shape": [448], "dtype": "float32"}, {"name": "conv2d_453/kernel", "shape": [1, 1, 1280, 384], "dtype": "float32"}, {"name": "conv2d_457/kernel", "shape": [3, 3, 448, 384], "dtype": "float32"}, {"name": "batch_normalization_453/beta", "shape": [384], "dtype": "float32"}, {"name": "batch_normalization_453/moving_mean", "shape": [384], "dtype": "float32"}, {"name": "batch_normalization_453/moving_variance", "shape": [384], "dtype": "float32"}, {"name": "batch_normalization_457/beta", "shape": [384], "dtype": "float32"}, {"name": "batch_normalization_457/moving_mean", "shape": [384], "dtype": "float32"}, {"name": "batch_normalization_457/moving_variance", "shape": [384], "dtype": "float32"}, {"name": "conv2d_454/kernel", "shape": [1, 3, 384, 384], "dtype": "float32"}, {"name": "conv2d_455/kernel", "shape": [3, 1, 384, 384], "dtype": "float32"}, {"name": "conv2d_458/kernel", "shape": [1, 3, 384, 384], "dtype": "float32"}, {"name": "conv2d_459/kernel", "shape": [3, 1, 384, 384], "dtype": "float32"}, {"name": "conv2d_452/kernel", "shape": [1, 1, 1280, 320], "dtype": "float32"}, {"name": "batch_normalization_454/beta", "shape": [384], "dtype": "float32"}, {"name": "batch_normalization_454/moving_mean", "shape": [384], "dtype": "float32"}, {"name": "batch_normalization_454/moving_variance", "shape": [384], "dtype": "float32"}, {"name": "batch_normalization_455/beta", "shape": [384], "dtype": "float32"}, {"name": "batch_normalization_455/moving_mean", "shape": [384], "dtype": "float32"}, {"name": "batch_normalization_455/moving_variance", "shape": [384], "dtype": "float32"}, {"name": "batch_normalization_458/beta", "shape": [384], "dtype": "float32"}, {"name": "batch_normalization_458/moving_mean", "shape": [384], "dtype": "float32"}, {"name": "batch_normalization_458/moving_variance", "shape": [384], "dtype": "float32"}, {"name": "batch_normalization_459/beta", "shape": [384], "dtype": "float32"}, {"name": "batch_normalization_459/moving_mean", "shape": [384], "dtype": "float32"}, {"name": "batch_normalization_459/moving_variance", "shape": [384], "dtype": "float32"}, {"name": "conv2d_460/kernel", "shape": [1, 1, 1280, 192], "dtype": "float32"}, {"name": "batch_normalization_452/beta", "shape": [320], "dtype": "float32"}, {"name": "batch_normalization_452/moving_mean", "shape": [320], "dtype": "float32"}, {"name": "batch_normalization_452/moving_variance", "shape": [320], "dtype": "float32"}, {"name": "batch_normalization_460/beta", "shape": [192], "dtype": "float32"}, {"name": "batch_normalization_460/moving_mean", "shape": [192], "dtype": "float32"}, {"name": "batch_normalization_460/moving_variance", "shape": [192], "dtype": "float32"}, {"name": "conv2d_465/kernel", "shape": [1, 1, 2048, 448], "dtype": "float32"}, {"name": "batch_normalization_465/beta", "shape": [448], "dtype": "float32"}, {"name": "batch_normalization_465/moving_mean", "shape": [448], "dtype": "float32"}, {"name": "batch_normalization_465/moving_variance", "shape": [448], "dtype": "float32"}, {"name": "conv2d_462/kernel", "shape": [1, 1, 2048, 384], "dtype": "float32"}, {"name": "conv2d_466/kernel", "shape": [3, 3, 448, 384], "dtype": "float32"}, {"name": "batch_normalization_462/beta", "shape": [384], "dtype": "float32"}, {"name": "batch_normalization_462/moving_mean", "shape": [384], "dtype": "float32"}, {"name": "batch_normalization_462/moving_variance", "shape": [384], "dtype": "float32"}, {"name": "batch_normalization_466/beta", "shape": [384], "dtype": "float32"}, {"name": "batch_normalization_466/moving_mean", "shape": [384], "dtype": "float32"}, {"name": "batch_normalization_466/moving_variance", "shape": [384], "dtype": "float32"}, {"name": "conv2d_463/kernel", "shape": [1, 3, 384, 384], "dtype": "float32"}, {"name": "conv2d_464/kernel", "shape": [3, 1, 384, 384], "dtype": "float32"}, {"name": "conv2d_467/kernel", "shape": [1, 3, 384, 384], "dtype": "float32"}, {"name": "conv2d_468/kernel", "shape": [3, 1, 384, 384], "dtype": "float32"}, {"name": "conv2d_461/kernel", "shape": [1, 1, 2048, 320], "dtype": "float32"}, {"name": "batch_normalization_463/beta", "shape": [384], "dtype": "float32"}, {"name": "batch_normalization_463/moving_mean", "shape": [384], "dtype": "float32"}, {"name": "batch_normalization_463/moving_variance", "shape": [384], "dtype": "float32"}, {"name": "batch_normalization_464/beta", "shape": [384], "dtype": "float32"}, {"name": "batch_normalization_464/moving_mean", "shape": [384], "dtype": "float32"}, {"name": "batch_normalization_464/moving_variance", "shape": [384], "dtype": "float32"}, {"name": "batch_normalization_467/beta", "shape": [384], "dtype": "float32"}, {"name": "batch_normalization_467/moving_mean", "shape": [384], "dtype": "float32"}, {"name": "batch_normalization_467/moving_variance", "shape": [384], "dtype": "float32"}, {"name": "batch_normalization_468/beta", "shape": [384], "dtype": "float32"}, {"name": "batch_normalization_468/moving_mean", "shape": [384], "dtype": "float32"}, {"name": "batch_normalization_468/moving_variance", "shape": [384], "dtype": "float32"}, {"name": "conv2d_469/kernel", "shape": [1, 1, 2048, 192], "dtype": "float32"}, {"name": "batch_normalization_461/beta", "shape": [320], "dtype": "float32"}, {"name": "batch_normalization_461/moving_mean", "shape": [320], "dtype": "float32"}, {"name": "batch_normalization_461/moving_variance", "shape": [320], "dtype": "float32"}, {"name": "batch_normalization_469/beta", "shape": [192], "dtype": "float32"}, {"name": "batch_normalization_469/moving_mean", "shape": [192], "dtype": "float32"}, {"name": "batch_normalization_469/moving_variance", "shape": [192], "dtype": "float32"}]}]}